#5/task 2/Titanic/Titanic.pth (torch, 9485 bytes, 7 tensors)

linear1.weight f4 [32, 6]
00000000: d69f b4be 1fb2 48be 3fc5 22be b038 863e
00000010: 0328 c63d 9260 cdbe e637 c2be e551 9a3d
00000020: 8507 a2be c15e 253e 2894 b33d e277 263e
00000030: ecae 0fbe e109 3ebe 8d32 eebd 067e 463e
00000040: e2b2 a1bd 16ca a6be 11b5 f2bd e736 11be
00000050: 0312 563d 43d2 c3be b1c9 b2be 0536 d03d
00000060: 90d3 5c3e 270f 123e 3058 b13d d576 b83e
00000070: 55ce 403e 8d81 163d 7614 b4bb f1bf ca3d
00000080: b278 71be 3619 75be e694 743e 1db9 b33d
00000090: 53c4 cabe 65b5 a63e b9b1 603e 0a85 5abe
000000a0: 3b80 a2be bba5 adbe 7dff b43e a353 03be
000000b0: 71c3 bf3e 176b 38bd d461 b3b8 63fc c9be
000000c0: 4910 723e 83a1 0d3d 7708 a1be 9c18 4dbc
000000d0: 344c 9bbe 1a7a b83e 6b83 e5bd f725 fa3d
000000e0: 90e3 81be 9ce6 1f3c 9c89 113e a5b5 bb3e
000000f0: f407 133e d786 3d3e 979a 9d3e 66aa 79bc
00000100: a5ca a33c a106 74bd 2c53 b63e 1db7 2cbe
00000110: e99f c83d 8edb cdbe fa43 a1be 5bda 143e
00000120: 3807 76bb 2e47 b23c ee95 c53e 5f53 3f3e
00000130: 0fed 5d3e ceaa fd3d a71d babd 2697 783e
00000140: c377 67bd a8a7 4cbd 92b2 b53e 1c01 80be
00000150: 9f0b a63b 3bf3 31bd c962 a03e 1a94 bd3e
00000160: 099f db3e 3590 553e d32c 83be c5f1 a43d
00000170: 5f4a 23bd c102 9d3e c842 bdbe 39ef abbd
00000180: 189c a13e 914d e1bd 05da 0fbd 3663 d4be
00000190: 38d1 de3d 171c 9d3e 8433 cc3e 430d aebe
000001a0: a2bc 583d 64cf 8d3e 03cc a0be 0cba a83e
000001b0: 0e3d c2be df57 c0ba 3577 8fbe cd5a c4be
000001c0: fb57 d63e 493d 233e 5052 c73e c83f 7dbe
000001d0: 1963 a23d e394 943e 07c8 873e 6086 ec3c
000001e0: 3ac9 553e afca 1fbd a4af 5c3d f733 c5be
000001f0: 6e2f c93d c1e0 afbe 8e78 7c3e 1899 98bd
00000200: e20a 8bbe 694e 91be 3593 3c3e bbda 56be
00000210: af99 0bbe 8716 cdbe 5eb4 803c 80bf 8e3e
00000220: 1274 7c3e ad25 0c3d a3f1 07be 0b3d 3abe
00000230: 4054 e3bd 9bc4 a93d 2e56 c43d e75a a7be
00000240: 3b66 06bf 7ac9 b3bd 2cd4 a53e 2900 b0be
00000250: f970 4b3c 9c22 c6be a4e9 ccbd 039b bd3e
00000260: e990 953e 6067 25be 22a0 9dbd 84c6 cabe
00000270: 893a 9b3e 536f 0dbe 6bf2 97be 03c0 8fbd
00000280: 2ea5 b4be 5f6c 103c 31ed dcbe fcd5 a2be
00000290: 783b 97be 8f4a 513b 0a29 d33e 7d05 82be
000002a0: 7d95 003f 412f 57be 5ef7 7cbe 1bad b83c
000002b0: d925 c5be 9aa9 f0bd bcfa f6bd 6c80 01be
000002c0: ea64 663e 1598 c3be ceff 5dbe 088a b53e
000002d0: 26f2 47be 9adb bebe f2fe c33e ebdd a8be
000002e0: 7b4e f1be cf3f 3abe df11 c6be 6642 003e
000002f0: 48e2 6b3e 954c c3be 77b4 52be fb5f 603c
-0.35278195 -0.19599198 -0.15895556 0.26215124 0.096756004 -0.4011274 -0.37933272 0.075351514
-0.31646362 0.16149427 0.08768493 0.16256669 -0.14031571 -0.18558456 -0.116307355 0.19384012
-0.07895447 -0.32576054 -0.11850942 -0.141811 0.05226327 -0.38246354 -0.34919503 0.101665534
0.2156508 0.14263593 0.086593986 0.36028162 0.1882871 0.036744643 -0.005495603 0.09899891
-0.23581198 -0.23935398 0.23884925 0.08775542 -0.39602908 0.32560268 0.21942796 -0.21339813
-0.31738457 -0.33915505 0.35351172 -0.12824874 0.37453797 -0.045024004 -8.553607e-05 -0.39450368
0.23639025 0.034577858 -0.3145177 -0.012518074 -0.30331576 0.36030656 -0.112067066 0.122142725
-0.2536893 0.009759571 0.1421265 0.3666202 0.14358503 0.18508469 0.30782005 -0.01523838
0.01999409 -0.059576634 0.3561033 -0.16866727 0.097961254 -0.4020657 -0.31497175 0.14536421
-0.0037540924 0.021762457 0.3859095 0.18684147 0.21672462 0.12386094 -0.09087687 0.24276409
-0.056510698 -0.049964577 0.354878 -0.25000846 0.0050673033 -0.043444853 0.31325367 0.37027055
0.42894772 0.20855792 -0.25620136 0.080539264 -0.039865848 0.30666164 -0.36965013 -0.083952375
0.31564403 -0.11001123 -0.03512003 -0.41481942 0.10879749 0.30685493 0.39883053 -0.33994493
0.05291427 0.2769729 -0.3140565 0.32954443 -0.37937206 -0.0014674625 -0.28020635 -0.38350525
0.41864 0.15941347 0.38929987 -0.24731362 0.07929058 0.29019842 0.26519796 0.028872669
0.20877543 -0.039011654 0.05387844 -0.3851621 0.098234996 -0.3435116 0.24655363 -0.07451075
-0.2715674 -0.28380135 0.1841553 -0.20981877 -0.13632844 -0.4005625 0.015711006 0.27880478
0.24653652 0.034215618 -0.13275771 -0.18187349 -0.11100054 0.08289453 0.0958675 -0.3268654
-0.5249974 -0.08778663 0.32388437 -0.34375122 0.0124170715 -0.3869828 -0.10005501 0.37032327
0.2921212 -0.16152716 -0.076965585 -0.3960458 0.30318096 -0.13811998 -0.29677138 -0.07019045
-0.35282272 0.0088149 -0.43149713 -0.31803882 -0.2953756 0.003193531 0.41242248 -0.25394812
0.502281 -0.2101412 -0.24703738 0.02254348 -0.38505438 -0.11751099 -0.120595425 -0.12646645
0.22499433 -0.38201967 -0.21679613 0.35456872 -0.19525966 -0.37276918 0.38280445 -0.3298181
-0.47130188 -0.18188404 -0.3868551 0.12525329 0.23035538 -0.38144365 -0.20576654 0.0136947585

linear1.bias f4 [32]
00000000: 67e1 913d 1103 343d f0a5 153e 1fde d0be
00000010: 2827 7fbe ada4 84bd 50a7 603e 36c2 903e
00000020: 22dd eabc f709 6c3e 00e0 b93e 38bf 823e
00000030: f2cb 3bbd b594 cf3e 2734 c4be 027f 293e
00000040: 38a4 33bd cc2d 2abe a2e1 3b3e 2da1 e3bd
00000050: 2b97 263e b20c af3e ea4d 7abe 01c1 0cbe
00000060: 2626 d33e 0790 9c3d 6ad4 873e ee6f 94be
00000070: 1888 373e e4e3 c0bd 79ae cdbd 230e b9be
0.0712307 0.043948237 0.14614081 -0.40794465 -0.2491728 -0.06476722 0.21938825 0.2827317
-0.028669897 0.23050676 0.3630371 0.25536513 -0.045848794 0.40543142 -0.3832104 0.16552356
-0.043857783 -0.16619033 0.18347791 -0.11114726 0.16268604 0.34189373 -0.24443784 -0.137455
0.41240042 0.076446585 0.26529247 -0.28991646 0.1792301 -0.09418467 -0.10043044 -0.36143598

linear2.weight f4 [32, 32]
00000000: 3fff f23d 7548 cdbd d5f0 d4bd f3d9 05be
00000010: 5500 1bbd c20d 2dbe c455 a5bd ab80 f1bd
00000020: 0348 f2ba 62d2 c5bd 1ba7 e63d 2725 263e
00000030: cc61 84bb 3c3f 27be 449b 36be 6a5b 0e3e
00000040: cc45 ff3d 592b d6bc 227d 293d 36c3 ab3b
00000050: 32ea 24be 08c9 15be cbca 5bbe aa4a eb3d
00000060: 2b6b efbd c212 763d 535a 25bc 89ce b5bd
00000070: 272b 433e 4e2e 243d beec f13d 7432 0f3e
00000080: c6dc 3bbe 5ba1 37bd 0b86 9a3d a9ce bf3d
00000090: 7174 70bc aa16 b03d b2b4 0bbe 3d58 1f3e
000000a0: f1c5 3b3e ec38 a13d 0d1c a43d 5cb7 babd
000000b0: 274a 55bd 85cc e63c e054 6e3c b15b 82bd
000000c0: 6e1b 763d 1412 293c 7e73 01be 6ee0 3c3c
000000d0: 29e6 aabd df25 55bd fa10 6dbd 6a02 edbd
000000e0: d94b 32be 2257 783c c59c 203e f2f2 3bbe
000000f0: 3a27 4e3e 9613 333e dc63 a33d 9c03 d5bd
00000100: b8cb 8bbd 1f8d 37be 9024 873d e63d d23a
00000110: b7d0 e0bd 3d9c f7bd 1410 8b3d 52e4 ebbc
00000120: bc4f 783d 2736 253e 5b19 b1bd c1f4 683b
00000130: 33e9 113e e218 e5bd 1133 053e 00a7 103e
00000140: 067f c4bd 05bb 4f3d 1200 a43d 32cb 493d
00000150: 025d e1bd 45fe 223e 9953 e3bd 020a a33c
00000160: a91c 02be 9349 6bbd c2dd 193e dda9 dcbd
00000170: 5304 1b3e 1256 9bbd fc62 253e 04c5 203c
00000180: 1602 f5bd dd70 5abc 5d44 023c cc05 ecbc
00000190: 894f e73d 9245 02be a1cd c13d 4fa6 df3d
000001a0: aaf9 a4bd 7cf9 9e3a 76d3 afbd dacb d3bd
000001b0: 5a62 0a3c 9038 c93d 0dca 23be f49e 963d
000001c0: 7454 233e 10d4 de3d ede2 40be 21f8 2cbe
000001d0: c331 65bc 010e 00be bef5 3cbd 0e25 fabd
000001e0: 43c2 153e 130b 833d d625 fe3d 173c 1c3c
000001f0: 39ae 0d3e 7eee 303e 3136 1c3e 5a6b 853d
00000200: 9dd4 173d 4072 12be 23d7 21be fe3b 14be
00000210: 75fa bf3b 220e c53d 626e 5c3d 2cb3 2dbd
00000220: 6832 d8bd 03cc f63d 557f f5bd a05c 093e
00000230: b240 333e 69df 413d 62ca 33bd 897a d8bd
00000240: 8444 1c3e fb91 d5bc 365b 10be 8bbf babd
00000250: e34c 833d df6b 2cbd 2cb2 843d 1ba4 98bd
00000260: fccb 1d3e eb3a fabc 469b e63d 7e48 bd3d
00000270: 9bec aabd da31 8ebd 6ae7 293e 83b3 21be
00000280: 3194 1dbe e5dd 20bd 919e 9d3d f4d2 393e
00000290: 6340 113e 4071 6e3d c210 b83c 2318 cb3d
000002a0: c8e4 73bd f309 0b3e 9822 1a3e 90cd 583e
000002b0: 27ef 2bbc a4e8 3ebe c171 79bd 0fd6 d5bc
000002c0: 1f73 55bb 2dee 133e 34af 30be fc36 2e3e
000002d0: 1cc4 b63d 3763 edbc 746f a23c 5ced 63bd
000002e0: e8ef 6dbe 7b97 8cbd c7ed f93d eb3d 69bd
000002f0: 6a7e bb3b b2ee a4bd 49ca b0bb f9ef e7bd
00000300: b3b1 11be 48ae 4ebd 3c29 b63d 66cd 9ebd
00000310: 0a6d 15be fe9f dd3c 9ff5 89bd a79b 2bbe
00000320: 71ff 003d e634 153e 7d7c f93c 7fa4 d53c
00000330: 1067 08be edb1 543d d3ec ebbc 9f9d 71bd
00000340: 4c1c 083e 9e0d a23c 7166 1abe b107 303d
00000350: ad7b 07bc e180 f13d 6bc1 db3d cf2b c43d
00000360: 17fb ecbd 98cb 403d 4c80 ecbc 116d 4d3d
00000370: 141f b43d b4cf 253d 386c dcbd 977d 04bd
00000380: ba95 a33c b29a 973d 7c4d 24be 61f3 ddbd
00000390: 2b9d 2bbe 1607 613d 893b 97bc fce2 86bd
000003a0: 0be6 b63d 97c3 333e 0de1 083e 3a81 39be
000003b0: c128 2ebe 6349 f73d 40a8 8b3d 74b7 b33d
000003c0: b1b5 ed3d 73c6 dabd 4733 bb3c 8df4 29bc
000003d0: 73c5 fb3d 9ab1 05be 847a e3bd ef18 ebbd
000003e0: 4339 023e 34c1 12be 487b e13d d3b0 04be
000003f0: 8501 af3d 2ca0 fcbd caf4 823c c2b5 25be
0.118650906 -0.10023586 -0.103974976 -0.13071422 -0.037842114 -0.1689978 -0.08072999 -0.117921196
-0.0018484596 -0.09659268 0.112623416 0.1622511 -0.0040399786 -0.16332716 -0.17832667 0.13902059
0.124644846 -0.026143717 0.0413791 0.005241777 -0.16104963 -0.14627469 -0.21464078 0.114888504
-0.116903625 0.060076483 -0.010092336 -0.08877284 0.1905943 0.040083222 0.11812733 0.1398409
-0.18345937 -0.044831615 0.07545098 0.09365589 -0.014676199 0.08598073 -0.13643149 0.15561004
0.18337227 0.07872185 0.08013163 -0.09117004 -0.05207267 0.028173694 0.014546603 -0.06365145
0.060084753 0.010319252 -0.12641713 0.011528118 -0.08344681 -0.05203807 -0.05787752 -0.11572726
-0.17411746 0.015157493 0.15684803 -0.18354395 0.20132151 0.1748794 0.07978031 -0.10401079
-0.06825966 -0.17924927 0.065987706 0.0016040176 -0.10977309 -0.12090347 0.06790176 -0.028795395
0.060622916 0.16133939 -0.08647414 0.0035546275 0.14249115 -0.11186387 0.13007762 0.14126205
-0.0959454 0.050715465 0.08007826 0.049266048 -0.11004068 0.15917309 -0.11099929 0.019902233
-0.12706245 -0.057443213 0.15026 -0.10774586 0.15138368 -0.07584776 0.16151041 0.009812597
-0.119632885 -0.013332573 0.007950869 -0.028811358 0.11294467 -0.12721851 0.09463049 0.10920393
-0.08055432 0.0012128795 -0.08585255 -0.10341616 0.0084463 0.098252416 -0.15995045 0.07354537
0.15950185 0.108802915 -0.18836565 -0.16891529 -0.013988915 -0.12505342 -0.046132796 -0.12214099
0.14624886 0.063985966 0.124095604 0.009535811 0.13835992 0.17278478 0.15255047 0.06514616
0.037068 -0.14301395 -0.15804724 -0.1447601 0.005858714 0.09621836 0.053816207 -0.0424072
-0.10556489 0.12050631 -0.11987177 0.1341424 0.17505148 0.0473322 -0.04389418 -0.10570247
0.15260512 -0.026070585 -0.14097294 -0.09118565 0.06411149 -0.04209506 0.06479296 -0.07453176
0.15409845 -0.030545672 0.11260085 0.092423424 -0.0834591 -0.06943102 0.16592184 -0.15791135
-0.15388562 -0.039274115 0.0769626 0.18146878 0.14184718 0.058213472 0.022468928 0.09916713
-0.059544355 0.13578014 0.15052259 0.21172166 -0.01049403 -0.18643433 -0.0608995 -0.026103048
-0.0032569838 0.14446326 -0.17254335 0.17013162 0.08924124 -0.028977973 0.019828536 -0.055646285
-0.23236048 -0.0686483 0.122035556 -0.056943815 0.005721857 -0.0805334 -0.005395208 -0.11325068
-0.14227943 -0.050459176 0.088945836 -0.077540204 -0.14592376 0.02705383 -0.06736302 -0.16758595
0.031493608 0.1457096 0.030454868 0.026079414 -0.13320565 0.051927496 -0.02879945 -0.05898821
0.13292044 0.019781884 -0.15078141 0.042976085 -0.008269233 0.1179216 0.10730251 0.09578668
-0.11571329 0.047069162 -0.02886977 0.050152842 0.0879499 0.040481284 -0.107628286 -0.032346334
0.019968856 0.07402553 -0.16045183 -0.108374365 -0.16759174 0.0549384 -0.018461006 -0.065862626
0.08930596 0.1755508 0.133671 -0.18115702 -0.17007734 0.12074544 0.068192005 0.08775225
0.116069205 -0.106823824 0.0228516 -0.010373247 0.1229352 -0.13056031 -0.111073524 -0.11479365
0.12717156 -0.14331514 0.11009842 -0.12958078 0.08545212 -0.12335238 0.015985865 -0.16182616

linear2.bias f4 [32]
00000000: 4f70 90bd d541 d4bc a227 d8bd 1976 163e
00000010: e421 cfbc ff51 44be 71a6 0a3e ca0a ab3d
00000020: 43e1 513e fa91 83bd fe07 15be 8ec0 8438
00000030: 23a7 dbbd acaf be3d 2cd7 663c 1262 43bd
00000040: 7ca4 ba3d dbb5 09bc 4b3a c8bc ae2e 903d
00000050: 04e5 c9bd c58d 05be 400b 16be ba76 9d3d
00000060: 6a9e 3c3d 837b d63d f148 3abe d350 22be
00000070: 7635 bb3d 5c43 16be 988f 8b3d d9b9 043c
-0.07052671 -0.025910297 -0.10554434 0.14693488 -0.025284715 -0.19171904 0.13540055 0.08351667
0.20496087 -0.06424327 -0.1455383 6.3301166e-05 -0.10725238 0.093108505 0.014089387 -0.04770095
0.09113404 -0.008405174 -0.024441859 0.070401534 -0.098581344 -0.13042362 -0.14652729 0.07688661
0.046049513 0.10472777 -0.18191887 -0.15851144 0.09141056 -0.14674133 0.06814498 0.00810095

linear3.weight f4 [8, 32]
00000000: eeb2 bebd f1b7 4fbe c3ff 5a3c aeda 123c
00000010: c985 1f3d 41b2 34be 31ad 56bd 1615 c1bd
00000020: a2bb 39bd bceb 00bd 3581 8c3d bf71 2bbe
00000030: 29c7 d9bd 0033 78bd 6cb0 0c3d 4675 5f3d
00000040: 7c7e 133e 3cde 923d e4b2 5cbc 9801 363e
00000050: 70f5 4a3c 2479 813d 5bdc ab3d f96b e8bd
00000060: 7ae6 873d fd75 13bd b2a1 43be db1d ddbd
00000070: cf11 c3bd b014 133d f75a 6bbd 0b27 a13d
00000080: f80d 58be ec2d 22be 8669 f5bd 89e1 bcbd
00000090: 6312 80bd 2b0a 03bd fb78 61bd 4331 993d
000000a0: b553 f1bd e497 9fbd 9cbe c63c d634 fdbd
000000b0: ca91 ff3d ca2d 843c 48de 3cbe ba58 503e
000000c0: 93b6 193d d5b7 24be fd30 93bb b335 663e
000000d0: ffc4 41be f897 903d 3d8e fdbd f39f 22be
000000e0: 168f 19be 55c1 413d 7a12 32be 8734 efbd
000000f0: 511b 61be d945 963b 58a6 dbbd 89b8 b83d
00000100: dcfb 833d 90bb 4c3d 6ef8 8bbc dab1 d0bd
00000110: aba7 ab3c ff6c 543e fd06 ddbc ee83 693d
00000120: e64e 16be c932 2e3e 80f6 603e 3d8b 3ebc
00000130: 07c2 d5bd 53c2 1d3e 3745 f53d dde3 8fbd
00000140: 47f0 2bbe bb33 66bd 46f8 693d 151e 42be
00000150: b502 9a3d 9274 173e 615e a63d 62e2 333e
00000160: 5b48 253e 7dce 123e 36d1 273e 5427 2c3e
00000170: 1a23 863e 95de 0d3e fff3 a33d 68a7 6e3d
00000180: c549 4abd c567 81bc 48a6 1b3e f864 67bd
00000190: a67d 17be 8d19 063e 2f53 023e a8fc 4abd
000001a0: 83bb 0ebe 14ca 28be fef5 063d 7766 343e
000001b0: cc76 9ebc 2145 1d3e c331 0abe 1844 8abc
000001c0: 0546 bd3d e56d 1e3e e5df 0dbe c1bb b93d
000001d0: 8b33 1dbe da5f 2bbd 477f b23d 5c65 babd
000001e0: 4b66 333e d942 21be 8868 11be 5a8a 20be
000001f0: 1b25 c53a 44a0 f5bd 70c2 25bd 198c d5bd
00000200: d78f 36be a6ef 07bd 2c2c cdbd 9331 463c
00000210: fbae 253d dc70 7abe 32a2 94bd 05cc 9c3d
00000220: 0a13 433e d935 d0bc 8b0d aabd 24d9 5a3d
00000230: 6a17 00bd da80 d5bd fc3e 25bd d78f 1f3e
00000240: 3095 9bbd 9572 49be ad24 603d b156 933d
00000250: 2db8 bfbd da8c 71bd 5979 f0bd f46e e0bd
00000260: 6364 f63c 5fe6 27be 7ab5 cd3c 6606 0a3d
00000270: 8ee6 43be d31b 8bb9 cf13 213e 24d1 f73d
00000280: ef42 c8bc 012d 8e3e b3b0 243e 90bf 4a3e
00000290: 0776 08be c4fb 673e 2399 be3d 0d27 20be
000002a0: 472e 48be 12c0 0d3e 168c 983e 7814 d7bd
000002b0: a714 6f3b 03b5 c73d 70f0 2a3e 861f 52bd
000002c0: e3a3 7a3c 8d9a d13d a043 0c3e 22f5 84be
000002d0: 7876 9a3d 441a c83d 36e8 dc3d 960b 1f3c
000002e0: ff77 ab3d 435d e1bc 80fc dc3b 3354 dfbd
000002f0: 13b2 ca3d 125f b8bb e947 6dbc 03b4 46be
00000300: b3d6 303e ad59 093e 30a9 e43d 79ef b53d
00000310: 7c01 943d 6683 073d 3d5f 243d 2e16 94bb
00000320: ebbe 06be 4d4e 2d3c 7f6f 2f3e 2fd1 f13d
00000330: 5e0f 4d3d 6c2f b43d d1d2 493d 5256 4cbe
00000340: d676 5fbe c1c3 643e ace5 21bd 0666 29be
00000350: 049c b53d 9864 0c3d cf53 c23d a9f4 8a3e
00000360: c0aa f7bc 159b 0a3e 67e5 6a3c 0a8e 92bd
00000370: 74c3 673e baa1 d2bd 5d3b 843d 77ad 84bd
00000380: 92be 773b d2cd 093e ef05 a83d bea8 e9bd
00000390: c6f7 b6bc baba f63d ff76 c8bc 7045 e9bd
000003a0: 6586 983b 1487 25be e8d3 b43d b1d2 213d
000003b0: eeb0 233e 4a39 3dbd d587 2c3d f764 4bbd
000003c0: 9d2f aa3d ddfd 333d e0c9 873d e59a 173e
000003d0: 676b a8bd 21dc 02be 9616 0e3e 681d 3ebd
000003e0: bf29 27be faf9 24bc e413 37be d883 f63d
000003f0: 9e78 073e 9bfe ccbd 28e5 9b3d 65bf 343d
-0.09311472 -0.20285012 0.013366642 0.00896327 0.038945947 -0.17646123 -0.052411262 -0.0942785
-0.045344956 -0.031474814 0.06860582 -0.1674261 -0.1063369 -0.060595512 0.034347937 0.0545552
0.14403719 0.07171294 -0.013470385 0.17774045 0.012387618 0.06321934 0.08391639 -0.11348719
0.06635757 -0.036001194 -0.1910465 -0.1079671 -0.09524881 0.0359084 -0.057459798 0.07868775
-0.21099079 -0.1583783 -0.119830176 -0.09222705 -0.06253507 -0.03199212 -0.055047017 0.07480099
-0.11783544 -0.07792643 0.024260812 -0.12363593 0.12478979 0.016135115 -0.18444169 0.20346346
0.037527632 -0.16085751 -0.004491924 0.22481422 -0.18922804 0.07060236 -0.123806454 -0.15881328
-0.14995989 0.047303516 -0.17389861 -0.11679941 -0.21983077 0.004585963 -0.10725087 0.09019572
0.06444523 0.04998356 -0.017086234 -0.101901725 0.020953974 0.20744704 -0.026980871 0.057010584
-0.14678535 0.1701156 0.21969032 -0.011629877 -0.104373984 0.1540616 0.11976092 -0.07025883
-0.16790877 -0.056201678 0.057121538 -0.18956788 0.075200476 0.14790562 0.0812347 0.17566827
0.16140883 0.14336582 0.16388401 0.16811877 0.26198655 0.1385444 0.08005523 0.05826512
-0.04938676 -0.015796551 0.1520015 -0.056492776 -0.14794025 0.13095684 0.12727045 -0.049557358
-0.13938718 -0.16483337 0.03294944 0.17617212 -0.019343756 0.15358402 -0.13495545 -0.016878173
0.09241871 0.15471609 -0.1385494 0.09069014 -0.15351693 -0.041839458 0.087156825 -0.09101364
0.1751949 -0.15748157 -0.14200032 -0.15677777 0.0015040966 -0.11993459 -0.040468633 -0.10427112
-0.17828308 -0.03318753 -0.10018191 0.01209678 0.040450078 -0.24457115 -0.07257499 0.07656101
0.19050232 -0.025416302 -0.08303364 0.053429738 -0.03127233 -0.10424967 -0.04034327 0.15582214
-0.07596815 -0.19672616 0.054722477 0.071942694 -0.093613006 -0.058972217 -0.11741895 -0.10958663
0.030077165 -0.16396473 0.025110949 0.03369751 -0.19130918 -0.00026532877 0.15730213 0.12100437
-0.024445979 0.2776871 0.1608303 0.19799638 -0.13326274 0.22654635 0.09306552 -0.15639897
-0.19548903 0.138428 0.29794377 -0.10501951 0.0036480816 0.09751322 0.16693282 -0.051299594
0.015297863 0.10234556 0.13697672 -0.25968271 0.07542127 0.09770635 0.10786478 0.009707352
0.08372497 -0.027510291 0.0067439675 -0.109047316 0.09897246 -0.0056265676 -0.014482477 -0.19404607
0.17269401 0.13413115 0.111650825 0.088835664 0.072268456 0.033084296 0.04012989 -0.0045192456
-0.13158767 0.01057775 0.17132376 0.11807477 0.050063483 0.087981075 0.049273316 -0.19954804
-0.21822676 0.22340299 -0.039525673 -0.16542825 0.08867648 0.03427562 0.094886415 0.27139786
-0.030232787 0.13535722 0.01433692 -0.07155998 0.22633153 -0.10284753 0.06456635 -0.06478398
0.0037802798 0.1345742 0.08204257 -0.11409138 -0.022334944 0.12047334 -0.024470804 -0.11390197
0.004654693 -0.1616481 0.088294804 0.03950757 0.15985462 -0.046197213 0.042121727 -0.049656834
0.08309863 0.043943275 0.066303015 0.14805181 -0.0822361 -0.12779285 0.13875803 -0.046414763
-0.16324519 -0.010069365 -0.17878681 0.12036866 0.13229606 -0.100095 0.076120675 0.04412784

linear3.bias f4 [8]
00000000: 7e58 833d dbbb 3b3e a263 3ebe 9c4e 70bd
00000010: 8b4c 073e 9f00 30be e31f 10bd db06 05be
0.06413363 0.1833338 -0.18592694 -0.058668718 0.13212793 -0.17187737 -0.03518666 -0.12990896

linear4.weight f4 [1, 8]
00000000: c181 743e 3617 153f cec5 1bbf 0a8a e7bc
00000010: 2d1d 0f3f b096 21bf bcd7 28bf a125 3c3c
0.23877622 0.5823854 -0.608487 -0.028264064 0.55903894 -0.63120556 -0.65954185 0.011483581
