#5/task 3/results/q1_model.pt (torch, 420969 bytes, 28 tensors)

conv1.weight f4 [16, 3, 7, 7]
000000 cf 37 b5 3c 7a ca 64 bd 01 c6 23 bd 6f 8f 78 bd
       0.022121338 -0.05585716 -0.039983753 -0.060683664
000010 01 e5 3e be 5c 56 80 bd a2 fa 0c 3e 17 3f 0e be
       -0.18642046 -0.06266472 0.13767484 -0.13891254
000020 64 35 78 be 1f c8 08 be 5b 5f dd 3c ea 5e 5e 3d
       -0.24239117 -0.1335759 0.027023008 0.054289736
000030 66 b2 cd 3d 99 1f cf 3d 98 ea 94 be 93 60 c9 be
       0.100437924 0.10113449 -0.2908523 -0.39331493
000040 c8 2e ad be 91 67 31 be 0b 49 bf 3c 0d 3c 84 3d
       -0.33824754 -0.17324664 0.02335026 0.06456766
000050 77 e5 38 bd 42 85 24 be 70 eb 89 be 09 8b b6 be
       -0.04514071 -0.16066459 -0.26937437 -0.3565295
000060 3c f5 e1 be 72 af 79 be 36 6e fb bd f6 0c cd bd
       -0.4413241 -0.24383333 -0.122768804 -0.10012238
000070 72 be 0e be 82 44 b0 be 7a 94 08 bf b1 04 3f bf
       -0.13939837 -0.34427267 -0.5335156 -0.74616534
000080 e4 5a 29 bf a4 3c d4 be a1 b7 00 be 02 30 57 be
       -0.66154313 -0.41452515 -0.12570049 -0.21014407
000090 f3 50 cf be 59 36 cd be d3 a9 d5 be 22 6d e4 be
       -0.40491447 -0.40080526 -0.41731128 -0.44614512
0000a0 02 14 d9 be 6c 8c 81 be 8e de 4e be cf 2e c4 be
       -0.42398077 -0.25302446 -0.20202085 -0.38316962
0000b0 52 bb ba be 56 89 90 be 22 21 94 be 03 6d cb be
       -0.3647104 -0.2822978 -0.28931528 -0.39731607
0000c0 23 69 b8 be 50 e7 2e 3d d1 7c d1 bd 22 a7 20 be
       -0.36017713 0.042701066 -0.10228885 -0.15688756
0000d0 b9 9c 68 be 9d 99 c1 be 2a 26 39 be e5 d6 86 3d
       -0.22716035 -0.3781251 -0.18080965 0.06583957
0000e0 a6 02 79 be 5d 7a bd be 41 82 8e be d1 84 0d be
       -0.24317417 -0.37007418 -0.2783375 -0.13820197
0000f0 a6 8e 15 be 0b 5d ac bd 61 f2 e8 bd 5d 88 d5 be
       -0.14605197 -0.08416184 -0.11374355 -0.417056
000100 af e1 f6 be e5 e3 b7 be b6 d3 32 be a3 d4 cf bc
       -0.48219058 -0.35916057 -0.17463574 -0.025369948
000110 b6 29 a2 bd e5 d9 a0 be 05 92 53 be 94 9a 78 be
       -0.07918112 -0.3141624 -0.20661171 -0.24277717
000120 53 c4 63 be 0f 0c 8b be e6 d9 e6 bd 64 e4 01 be
       -0.2224286 -0.27157637 -0.112720296 -0.1268478
000130 02 a3 86 be 06 19 44 bd 24 cb 3e be 37 d6 93 be
       -0.2629624 -0.047875427 -0.1863218 -0.2887437
000140 3a a4 ed be a8 32 c5 be c9 ef 65 be 05 2b 50 bd
       -0.46414357 -0.3851521 -0.22454752 -0.050822277
000150 91 5a 6f 3d 66 40 96 bd 97 27 96 3b 16 95 04 3d
       0.05843598 -0.07336502 0.004582356 0.032368742
000160 03 ca f4 3c 12 c1 b2 3c 87 1d d9 3d fe 43 30 3e
       0.029881483 0.021820579 0.10601335 0.17213437
000170 ea a8 3c 3d fa 7d 04 3e 38 e4 87 3e 22 17 96 3e
       0.046059527 0.12938681 0.26541305 0.29314524
000180 6c 15 35 3e 9a 94 14 3e 4d 33 af 3c de 39 4a 3d
       0.17683953 0.14509812 0.021386767 0.049371593
000190 2e 8b a0 3d f3 94 59 bb b0 e5 59 be 1f b2 e6 bd
       0.078390464 -0.0033200353 -0.21279025 -0.11264443
0001a0 c9 a2 03 bc 00 e2 2d 3e cd cd 9e 3e c8 33 0e 3f
       -0.0080344165 0.16980743 0.3101639 0.5554776
0001b0 c5 61 2f 3f 4c 6f 16 3f d5 da fc 3e 8f e2 71 3e
       0.6850856 0.58763576 0.49385706 0.23621581
0001c0 af 60 8c 3e b7 d9 11 3f 3f 00 6d 3f 8e b3 8f 3f
       0.27417514 0.5697283 0.925785 1.1226671
0001d0 98 29 91 3f e1 4a 5d 3f c1 93 ab 3e fd 80 d4 3e
       1.1340818 0.8644238 0.33511165 0.4150466
0001e0 b2 d8 3d 3f 46 62 84 3f d8 a0 83 3f fd 46 81 3f
       0.74158776 1.0342491 1.0283461 1.0099789
0001f0 df 0e 39 3f c2 1c 89 3e 5a 83 9a 3e cd 03 ea 3e
       0.72288316 0.26779753 0.30178338 0.45706025
000200 18 7d 17 3f 00 91 ed 3e 55 0c bb 3e 60 ce 88 3e
       0.5917525 0.4639969 0.36532846 0.26719952
000210 b8 03 30 3e 12 73 10 3e 26 a7 60 3e 7f 96 e4 3e
       0.17188919 0.14106396 0.21938762 0.4464607
000220 6f 1c f9 3e f4 7c af 3e d5 5d 20 3e fd 5f 6b 3d
       0.48654506 0.3427502 0.15660794 0.05746459
000230 4b 5f d9 bc 04 e9 e9 3b ac 2e 40 3e 6d 1f a8 3e
       -0.026534697 0.0071383733 0.18767804 0.32836476
000240 4c 22 85 3e eb 6a fb 3c cf 42 05 be 9c aa dd bd
       0.2600273 0.03069063 -0.13013767 -0.10823557
000250 47 ba 29 3d 2f 42 7e 3c d6 4b 60 be 67 2b 5e 3e
       0.041437414 0.015518709 -0.21903929 0.21696244
000260 21 b0 13 3e 6e f1 df bd ec db 05 3e f6 bb 41 3d
       0.14422657 -0.10934721 0.13072175 0.047298394
000270 d9 77 34 3e 2b c0 7c 3e bf d0 37 3f 29 77 d7 3e
       0.17623843 0.24682681 0.71802896 0.420831
000280 88 b3 c0 3c 98 0b d2 3d 41 13 b1 bd 35 5d 27 3d
       0.023523107 0.102561176 -0.086462505 0.040860374
000290 50 10 2e 3f 64 d6 a6 3f f7 b1 0f 3f fc 78 98 bd
       0.6799364 1.3034177 0.5613093 -0.07444951
0002a0 86 31 28 bd 67 5e 55 3d 53 da c6 bc 22 2c 5f be
       -0.041062854 0.052091982 -0.024274027 -0.21794179
0002b0 c3 67 9a 3d 81 b9 90 3d 79 0f 54 bd 3b 02 cf bd
       0.07539322 0.07066632 -0.05177257 -0.10107847
0002c0 53 32 3c 3e b1 30 0e bc 99 bd b8 bf 6e 93 a5 bf
       0.18378572 -0.008678601 -1.4432861 -1.2935617
0002d0 dc 70 dd be 71 55 08 3d 04 47 0a bd e7 ed 81 3e
       -0.43250167 0.03328461 -0.033759132 0.25376818
0002e0 e0 e7 4d 3e 42 b4 61 bf 3c 3f a6 be eb 51 96 bd
       0.20107985 -0.88165677 -0.3247012 -0.07339843
0002f0 63 31 b9 3d 82 32 8f 3d 51 5f a3 3d 27 83 67 3c
       0.09042623 0.069920555 0.079771645 0.01413039
000300 62 75 b8 be a7 07 67 3d b2 42 21 be 19 59 81 bd
       -0.36027056 0.056403782 -0.15748098 -0.06315822
000310 4a a6 65 be 0a 92 9a bd 81 72 ff bd a8 5b c5 be
       -0.22426715 -0.07547386 -0.12473012 -0.3854649
000320 85 3a cc 3d c8 96 ba 3c 0f 2d 66 be d8 b4 60 bc
       0.09972099 0.022776976 -0.22478126 -0.0137149915
000330 db 75 bc bd 0d 36 08 3d a6 fe 81 3d 6f 9d 1a 3f
       -0.09202167 0.03325467 0.063473985 0.60396475
000340 72 40 a5 3e bf 89 b1 bd db 27 94 3d 1b 90 5b bd
       0.3227573 -0.08668851 0.07234164 -0.053604227
000350 65 31 31 3e 80 21 63 3f 8b 8f ca 3f 04 10 23 3f
       0.17303999 0.8872299 1.5825056 0.6369631
000360 d8 d4 0e be 40 f9 03 be ca eb a6 bc 60 6d 32 3c
       -0.13948381 -0.1288805 -0.020376105 0.010890335
000370 ab 03 e7 bd bf 3d 26 3e cd 6f 85 bd 7f 50 92 be
       -0.112799965 0.16234492 -0.06515465 -0.2857704
000380 92 a3 38 be de 74 23 3d 85 24 58 bd e5 1d b6 bf
       -0.18031147 0.039906375 -0.052769203 -1.4227873
000390 6e 03 a6 bf fd 01 08 bf 9c a6 10 be 18 36 79 bd
       -1.2969797 -0.53128034 -0.14126056 -0.060842603
0003a0 b2 2a 2b 3e 31 34 8e 3e 61 35 1d bf d0 9f 37 bd
       0.16715506 0.27774194 -0.61409575 -0.044830143
0003b0 4e 58 ef 3d da e0 49 3e a2 41 e4 3d b4 71 03 3d
       0.11686765 0.1971468 0.11145331 0.032090858
0003c0 ec 10 0c 3d 81 03 3f be 2d 7e 8c 3e e1 19 1e 3d
       0.034195825 -0.1865368 0.27440014 0.0385989
0003d0 76 c4 15 3e d6 3f 08 be b7 28 19 3e 81 1b d7 3d
       0.14625725 -0.13305601 0.14956938 0.10503293
0003e0 45 98 96 be cd 49 36 3e 35 b7 2f 3e ff 07 37 3d
       -0.29413047 0.1780159 0.17159732 0.04468536
0003f0 39 bb 86 3d 3a 30 25 3e e6 13 6e 3e 2d 19 4a 3d
       0.06578679 0.16131678 0.23249778 0.049340416

conv1.bias f4 [16]
000000 3d 5b 9e 38 ee 35 14 39 67 be 19 2d 70 4e 96 b4
       7.5510216e-05 0.0001413447 8.739321e-12 -2.7996748e-07
000010 94 db 47 b9 d5 21 da 37 ef a0 9d b8 65 da c0 2e
       -0.00019059918 2.600338e-05 -7.5163196e-05 8.769944e-11
000020 55 bb 9b 38 b8 e3 0d 33 48 05 a2 b9 5d 1d 71 39
       7.425869e-05 3.303623e-08 -0.00030902983 0.0002299449
000030 25 d6 01 38 4e 32 da af c4 d0 03 37 db 51 cd 36
       3.0955434e-05 -3.9689713e-10 7.8568155e-06 6.1190053e-06

bn1.weight f4 [16]
000000 92 2c a4 3e 07 d8 c8 3f 1e c9 26 08 d4 c6 af bc
       0.32065254 1.5690926 5.019022e-34 -0.021457113
000010 97 9b 9e 3f 6c 3f e4 3e e3 02 ac 3f 4e dd 86 3b
       1.2391232 0.44579637 1.3438381 0.004115737
000020 8b 78 e1 3f a9 fe 25 2f 9a 91 cc 3f 9f 61 81 3f
       1.7614912 1.5097136e-10 1.5981934 1.0107917
000030 4b 64 b7 3f 69 d4 f1 9c 6e ca 36 3f 51 90 00 80
       1.4327482 -1.6002949e-21 0.71402633 -5.1771e-41

bn1.bias f4 [16]
000000 23 6d ae 3e c3 f3 9d be 2c de 61 8a 62 2d 94 bc
       0.3406764 -0.30850038 -1.0875142e-32 -0.018088046
000010 e0 43 92 3f 66 e3 ed 3e 1a 44 86 3f 3a 5e b0 bc
       1.1426964 0.46462554 1.0489533 -0.021529306
000020 fb e1 9a bf ef 61 99 a7 96 81 9e 3f 49 c0 44 3f
       -1.2100214 -4.257221e-15 1.2383296 0.76855904
000030 b0 7b 49 3f 2e 7e 79 8b 4f 4c b2 3e d9 fb 5b 8a
       0.7870436 -4.8050583e-32 0.34823844 -1.0591834e-32

bn1.running_mean f4 [16]
000000 4d 18 e6 be 6f 79 0e 3f d4 4f 13 ab 8b 95 61 32
       -0.44940415 0.5565404 -5.2335675e-13 1.3130726e-08
000010 38 06 c0 3e 70 05 6b bd c3 27 62 bd 7f 3c da ac
       0.37504745 -0.057378232 -0.0552137 -6.202649e-12
000020 11 cf a3 3f 49 d8 d2 b0 19 83 a5 be 21 c6 9b 3e
       1.2797567 -1.5340983e-09 -0.32326582 0.30424598
000030 f3 79 6c be 0a 79 80 2d ec 8e ab bf d4 f1 97 b4
       -0.23093395 1.4605667e-11 -1.3402991 -2.8301895e-07

bn1.running_var f4 [16]
000000 2c d6 35 42 37 73 d7 42 c2 e7 87 04 06 de 62 10
       45.459152 107.72503 3.1951183e-36 4.4741682e-29
000010 80 db 0f 42 47 4f c0 42 0c 7a 86 41 fd 75 ac 08
       35.964355 96.15484 16.809593 1.0379612e-33
000020 23 42 ab 42 4f 93 2e 10 77 cc 48 42 2e b0 80 41
       85.62917 3.4428932e-29 50.199673 16.086025
000030 4e 40 77 42 38 df c7 0a 24 4c 0f 43 d9 55 23 14
       61.812798 1.9246969e-32 143.29742 8.2463274e-27

conv2.weight f4 [32, 16, 3, 3]
000000 4a 42 64 3e 71 04 29 3c cb 0f 35 be 14 b4 35 3e
       0.22290912 0.010316 -0.17681806 0.17744476
000010 9d 7b b8 3c b6 95 da bd 8f 0b 4c 3d 3a 82 85 bd
       0.02251988 -0.10673086 0.04981571 -0.06518979
000020 f0 6c f2 bd 98 e4 af 3e 70 79 42 3e 2b ed 91 bc
       -0.118371844 0.3435409 0.18991637 -0.017813286
000030 0d d4 68 bd 28 c6 af be 15 aa d3 be 49 3f c2 be
       -0.056842852 -0.3433087 -0.413407 -0.37938908
000040 7b 56 37 bf ac 1a 24 bf 9c 55 15 08 93 5b 2d 07
       -0.71616334 -0.641032 4.493869e-34 1.3041985e-34
000050 ad 66 aa 06 02 a4 dd 87 d2 8c 67 03 0e 5a 8c 87
       6.409776e-35 -3.334878e-34 6.8046453e-37 -2.1117788e-34
000060 ec a0 bd 88 98 3a 12 88 16 ad 79 07 46 8a 00 80
       -1.1412856e-33 -4.4004153e-34 1.8783543e-34 -4.9603e-41
000070 b4 89 00 80 38 89 00 00 5d 8a 00 80 1a 8a 00 80
       -4.9399e-41 4.9225e-41 -4.9635e-41 -4.9542e-41
000080 4f 8a 00 00 91 a7 00 80 c1 88 00 80 6d 8a 00 00
       4.9616e-41 -6.0112e-41 -4.9058e-41 4.9658e-41
000090 38 e3 de bd 82 e9 b4 be 93 c0 ce be 41 4b ad 3e
       -0.10883182 -0.35334402 -0.40381297 0.33846477
0000a0 3a eb 78 3e 9d 78 cb bd 9f 9d 82 bd 37 89 9d be
       0.24308482 -0.099351145 -0.0637772 -0.3076875
0000b0 d2 2e 69 be 32 85 f5 bc 5b d3 01 3c c8 d4 da 3d
       -0.22771767 -0.029970739 0.007923926 0.10685116
0000c0 8e f8 12 be ae e0 87 bb 73 af 37 3e 44 ad 14 be
       -0.14352629 -0.004146657 0.17938022 -0.1451922
0000d0 59 bb 34 3c 86 1b 41 3e 46 ec 4a 3d 5b e5 a8 3e
       0.011030995 0.18858156 0.049541734 0.32987484
0000e0 7c 96 45 3d 49 db 1c bf a3 50 a0 be 85 e8 75 be
       0.048239216 -0.612721 -0.3131152 -0.2401448
0000f0 30 46 bc be 47 b5 37 bf 24 a3 9e be fb 89 00 80
       -0.367723 -0.7176098 -0.3098384 -4.9498e-41
000100 15 8a 00 80 66 89 00 80 67 89 00 80 28 8a 00 80
       -4.9534e-41 -4.9289e-41 -4.929e-41 -4.9561e-41
000110 08 89 00 80 e9 88 00 80 d8 89 00 80 1d 89 00 80
       -4.9158e-41 -4.9114e-41 -4.9449e-41 -4.9187e-41
000120 f6 dd e7 be ed 3e 07 bf 45 84 22 be b6 75 c4 be
       -0.4528653 -0.5283039 -0.1587077 -0.38371056
000130 72 05 f1 be d4 93 a6 be 01 40 de 3e ce ca 08 3e
       -0.47074467 -0.3253466 0.43408206 0.13358614
000140 08 09 3b be b3 92 00 00 73 8a 00 00 77 89 00 00
       -0.18265164 5.2626e-41 4.9666e-41 4.9313e-41
000150 96 89 00 00 65 8a 00 80 a1 89 00 80 2c 8a 00 80
       4.9357e-41 -4.9647e-41 -4.9372e-41 -4.9567e-41
000160 ee 88 00 80 c3 89 00 80 d2 c5 1d be be 9d b1 be
       -4.9121e-41 -4.942e-41 -0.15407494 -0.3469066
000170 e3 55 d9 3d 4f fd 96 be 30 b1 1b bf 37 38 6f bc
       0.10612085 -0.29490134 -0.6081724 -0.014600805
000180 21 5a 3b be 2c 4a 06 bf 5b 2e 2e 3d c4 2e 8c 3e
       -0.182961 -0.5245693 0.042524677 0.2737943
000190 8e 7e 13 3e dd 39 5b 3e 1e f8 91 bd 37 06 91 3c
       0.14403746 0.21408792 -0.07127403 0.017703159
0001a0 be fc b9 bc 31 3f 87 be b4 ef bb 3c e7 34 c6 3e
       -0.022703525 -0.264154 0.022941448 0.38712236
0001b0 4a aa 71 3e fc 52 77 3d f6 d0 93 bd a9 60 ff 3e
       0.23600116 0.060381874 -0.072175905 0.49878433
0001c0 65 38 bf 3e 9b f3 10 3f f1 58 22 3e c3 7d 88 bc
       0.37347713 0.5662171 0.15854241 -0.01666153
0001d0 b7 a4 24 3d a9 95 00 00 59 89 00 80 e9 a6 00 80
       0.040196147 5.3688e-41 -4.9271e-41 -5.9876e-41
0001e0 a4 94 00 80 f1 97 00 00 e9 9f 00 00 f6 8f 00 00
       -5.3322e-41 5.4506e-41 5.7365e-41 5.1643e-41
0001f0 6d b7 03 00 7c 89 00 80 3e 30 a5 be d2 0a 9c be
       3.41307e-40 -4.932e-41 -0.32263368 -0.30477005
000200 d0 86 52 be 1e 5c 87 be b5 ec f9 be e5 74 10 bf
       -0.2055924 -0.26437467 -0.48813406 -0.56428367
000210 b5 e2 e8 3e b3 96 2f bc 76 ce 92 be 84 e0 fa 07
       0.45485464 -0.010717082 -0.28673142 3.7747778e-34
000220 89 7b b8 06 da dc 82 08 a9 ef b9 86 e5 26 8f 03
       6.9394626e-35 7.876012e-34 -6.9941415e-35 8.413714e-37
000230 76 1a 23 88 ec 89 a1 07 e1 15 e0 06 32 0b 64 08
       -4.9082133e-34 2.430565e-34 8.4291583e-35 6.8624414e-34
000240 a8 25 03 be 05 5f 94 bd 0d da 10 be f9 b4 81 bd
       -0.12807333 -0.07244686 -0.1414568 -0.06333346
000250 40 d9 13 3c 59 11 bc bd dc 00 18 3e 1b 87 91 3e
       0.009023964 -0.09182996 0.14844078 0.2842339
000260 a8 d2 4d 3e 24 e4 59 bf 3b 5d 09 bf 77 e8 1e bf
       0.2009989 -0.8511374 -0.53657883 -0.62073463
000270 1e 44 69 bf 41 ae 00 bf 74 f3 25 bf 8b df fa be
       -0.91119564 -0.5026589 -0.64824605 -0.48998675
000280 f7 04 2e bd d2 be ed 3c 17 5f a2 88 10 32 0f 89
       -0.042485204 0.029021654 -9.772376e-34 -1.7236538e-33
000290 de 76 b1 88 82 fc 01 08 a6 db 84 83 e9 ac 5a 08
       -1.0680746e-33 3.9116347e-34 -7.8086915e-37 6.5805244e-34
0002a0 2a a0 3a 88 10 b1 82 88 8e cf 93 07 3c 4e d9 8d
       -5.616061e-34 -7.865718e-34 2.2240091e-34 -1.3392492e-30
0002b0 32 76 92 8e 42 74 d0 90 f7 05 34 8f 8e ba f0 8f
       -3.6105597e-30 -8.222066e-29 -8.875834e-30 -2.3737685e-29
0002c0 63 36 85 92 21 4c 4d 8e 46 8e c2 8e 65 e2 bb 91
       -8.406887e-28 -2.5304856e-30 -4.7961697e-30 -2.9642924e-28
0002d0 1e 6a 61 bf 93 1e e4 be ff 5f 27 bf 9e df da bd
       -0.88052547 -0.44554576 -0.65380853 -0.10687183
0002e0 6e a5 89 3e 6c 85 5e be 43 ed 61 3e 64 12 09 3f
       0.26884025 -0.21730584 0.22063164 0.53543687
0002f0 05 e1 87 3c 81 98 1b be 64 9c 35 3e 72 ad 70 be
       0.01658679 -0.15194894 0.1773544 -0.23503664
000300 dc e8 cf 3c c3 72 02 3f 52 99 37 3e da 3e 82 be
       0.02537959 0.5095636 0.17929581 -0.25438577
000310 84 5b 9e 3e 7a 3a 38 3d 64 c1 30 be bc c3 8b 3e
       0.30929196 0.044977643 -0.17261273 0.2729777
000320 7b bc d1 3e 32 e4 fb be 8a d2 3d be e0 8d 55 3d
       0.40964112 -0.49197537 -0.18537346 0.052137256
000330 77 0f 2f bf 0b 68 4a be 92 ed 1f be 85 59 be a9
       -0.6838297 -0.19766252 -0.1561797 -8.453224e-14
000340 9d 2f f2 29 b8 59 06 ab b4 e3 1a 28 cf 24 01 29
       1.07552185e-13 -4.7730873e-13 8.5980925e-15 2.867568e-14
000350 d7 ec f9 28 36 ff a6 a9 bc 31 d6 28 ab 4a 8b aa
       2.7747266e-14 -7.416153e-14 2.3780342e-14 -2.4743171e-13
000360 03 f1 55 bf 47 aa ea be b9 2e 82 be c4 ca bf be
       -0.8357088 -0.45833036 -0.25426272 -0.37459385
000370 70 4b 65 be 48 33 1f be 27 89 5e bf ee 10 17 bf
       -0.22392058 -0.15546906 -0.8692803 -0.5901021
000380 c0 72 10 bf 3a 89 00 80 53 89 00 80 a0 89 00 80
       -0.56425095 -4.9228e-41 -4.9263e-41 -4.937e-41
000390 ec 89 00 00 3c 89 00 00 bf 88 00 80 2a 89 00 00
       4.9477e-41 4.923e-41 -4.9055e-41 4.9205e-41
0003a0 20 89 00 00 c8 88 00 80 de a0 55 bf 6e 3c 51 be
       4.9191e-41 -4.9068e-41 -0.8344859 -0.20433208
0003b0 b3 ba b6 be d3 f4 e8 be 53 10 84 3d 9f ad 63 bd
       -0.35689315 -0.45499286 0.06448426 -0.0555855
0003c0 f0 86 d4 be 61 97 5f 3e 94 ae b6 be 0d 06 1c bf
       -0.415092 0.2183509 -0.35680068 -0.6094673
0003d0 8d db 93 be ab 4c 9f be 9e 12 b3 3d 50 22 5e 3e
       -0.2887844 -0.3111318 0.08743785 0.21692777
0003e0 97 12 e4 3d e1 75 36 be be 94 de bd ee 06 ed bd
       0.11136358 -0.17818405 -0.10868214 -0.11573587
0003f0 e9 0e 64 be dd 5a 8b bd 11 ad 82 bf 93 e6 3a 3e
       -0.22271313 -0.0680444 -1.0209066 0.1825202

conv2.bias f4 [32]
000000 a6 a5 e0 38 65 1a ea 39 ea 79 11 39 37 7b d3 38
       0.00010712007 0.00044651623 0.00013873694 0.000100842146
000010 c9 4e 91 b5 e7 ae 6e b3 5a 91 04 b7 68 3a 85 b9
       -1.0826271e-06 -5.5572766e-08 -7.901655e-06 -0.00025411253
000020 cd c0 22 b9 68 1e 09 39 23 97 19 b8 26 df 17 b9
       -0.00015521348 0.00013076665 -3.66188e-05 -0.00014483611
000030 a5 66 0c 38 42 34 be b8 06 7b c3 b8 92 cc 78 b9
       3.3474196e-05 -9.06964e-05 -9.3212395e-05 -0.00023727331
000040 d4 4c 80 ab 5a 4b f9 38 a5 fc 78 b8 ac 13 98 b6
       -9.116271e-13 0.000118872806 -5.93631e-05 -4.532243e-06
000050 2f f3 3e b9 28 42 94 39 0a 9c 99 37 7e 40 d0 b9
       -0.00018210405 0.0002827805 1.8311683e-05 -0.00039720902
000060 94 61 06 39 7a e5 82 b9 01 50 8a ae c5 a9 54 a6
       0.00012815587 -0.00024966506 -6.289725e-11 -7.3782356e-16
000070 a6 c9 90 29 cc 6e c5 a4 bd 83 ae 38 2a e0 9a b9
       6.429865e-14 -8.562283e-17 8.321505e-05 -0.00029540184

bn2.weight f4 [32]
000000 20 7c 94 3f d5 2f b6 3f af a8 e9 3f fd c7 a9 3f
       1.160038 1.4233347 1.8254603 1.3264157
000010 67 3e 43 3f a3 34 40 bc 5b a1 7b 3f df e8 c4 3f
       0.76267093 -0.0117313 0.98293084 1.5383567
000020 66 f4 81 3f 06 a3 71 3f 18 32 53 3f 79 bd ce 3f
       1.015271 0.9438938 0.8249831 1.6151572
000030 7c 37 b8 3f 9d c6 9c 3f e6 b0 77 3f f0 8d 99 3f
       1.4391932 1.2248112 0.967543 1.1996441
000040 4d 5b 91 b2 d8 b6 82 3f 90 0e af 3f 7e 17 a3 3f
       -1.692174e-08 1.021205 1.3676319 1.2741544
000050 43 33 8b 3f 34 94 b6 3f 6a 33 83 3f 97 7d 8c 3f
       1.0875019 1.4263978 1.0250065 1.0975827
000060 5d 85 b7 3f 87 94 41 3f 48 fb 47 2b 85 e1 3d b9
       1.4337574 0.7561726 7.1047725e-13 -0.00018108457
000070 c4 89 00 80 b5 fa 9a 33 97 74 bc 3f 94 28 8d 3f
       -4.9421e-41 7.216787e-08 1.472308 1.1028008

bn2.bias f4 [32]
000000 32 ae 8e bf b9 90 14 3e 4a ad 1b bf 42 76 9e bf
       -1.114691 0.14508332 -0.60811293 -1.237984
000010 aa 51 8a be 74 55 98 bc 9d 1e ce be cc 36 2a bf
       -0.2701543 -0.018595435 -0.4025773 -0.66489863
000020 3f 96 48 bf ff 72 90 be d0 25 82 bd 38 00 1c bf
       -0.7835426 -0.28212735 -0.063548684 -0.60937834
000030 e4 78 39 bf 49 0e 60 be 6b 27 ef be e2 35 b4 be
       -0.7245009 -0.2188045 -0.4670976 -0.3519736
000040 12 21 c1 9f d6 b9 c4 bf e1 c6 15 bf a0 ba 10 bf
       -8.179339e-20 -1.5369213 -0.5850659 -0.5653477
000050 0c 7f 29 bf 7b a5 c5 be f3 f2 b3 be 2e 16 3e be
       -0.66209483 -0.38602814 -0.35146293 -0.18563148
000060 7c 0a 9a be 82 23 64 be c9 fe e0 ab 72 37 71 b2
       -0.30086124 -0.2227917 -1.5986874e-12 -1.4040653e-08
000070 45 8a 00 80 d3 21 b2 ab 86 6e 59 bf a8 ff 36 bf
       -4.9602e-41 -1.2657049e-12 -0.8493427 -0.7148385

bn2.running_mean f4 [32]
000000 c0 66 c2 c0 3b d5 5f c1 af 22 bd c0 a3 7b 56 c0
       -6.0750427 -13.989558 -5.910484 -3.3512962
000010 a8 29 25 40 e1 ae 9f 32 e7 a6 0e c1 27 e4 a9 c0
       2.5806675 1.8589562e-08 -8.915748 -5.3091006
000020 16 69 8b c0 48 15 7e c0 60 80 04 c0 30 e4 0c c1
       -4.356578 -3.970049 -2.0703354 -8.80571
000030 bb 71 a1 c0 91 fd 16 c0 81 4f f3 bf 5f 49 72 c0
       -5.045133 -2.3592265 -1.9008638 -3.7857282
000040 a1 1b 61 29 e7 b7 2f 41 5f 0a 08 c1 bb d1 5f c0
       4.9984e-14 10.982398 -8.502532 -3.497176
000050 a6 20 9a c0 81 66 9f c0 5b 89 f5 c0 cd 69 48 c0
       -4.8164854 -4.9812627 -7.673017 -3.1314576
000060 e9 ad 73 c0 c9 9c a7 c0 99 e6 76 2c 94 04 2f 24
       -3.8074896 -5.237889 3.508671e-12 3.7950954e-17
000070 13 df 80 26 4f 51 ed 29 5b 68 12 c1 f7 91 20 c1
       8.942249e-16 1.0539019e-13 -9.150477 -10.035636

bn2.running_var f4 [32]
000000 38 76 af 41 dd 15 0a 42 f8 ad 2e 42 15 ea 60 41
       21.932724 34.52135 43.66989 14.057149
000010 6a f1 02 41 37 13 65 1a 02 e4 59 41 d0 9d ae 41
       8.183939 4.7371612e-23 13.618166 21.827057
000020 b3 b0 55 41 6e 28 50 41 70 dd 80 41 12 90 20 42
       13.355639 13.009871 16.108124 40.140694
000030 35 b5 ad 41 a8 f9 02 42 93 91 34 41 92 84 ea 41
       21.71348 32.743805 11.285541 29.314732
000040 35 ed 0a 01 5b 2a 98 41 2b c6 c6 41 f1 b8 bb 41
       2.5516785e-38 19.020681 24.846762 23.465303
000050 8b fd 82 41 0c b4 f3 41 6c 8a 9a 41 f2 e5 0f 42
       16.3738 30.462914 19.317589 35.974556
000060 e2 8b 11 42 3f 77 12 41 b1 97 3e 07 09 00 00 00
       36.386604 9.154113 1.4338589e-34 1.3e-44
000070 47 71 6c 00 1e 92 5c 14 38 00 a6 41 3e 08 7d 41
       9.95887e-39 1.1135978e-26 20.750107 15.814512

conv3.weight f4 [48, 32, 3, 3]
000000 32 9d 5f be de da 1a be 87 9e c5 be 14 7c 90 3e
       -0.21837309 -0.15122554 -0.3859751 0.28219664
000010 d1 65 e6 3d 6d 85 e6 bc 8f 64 0a 3f 1d 28 62 3e
       0.11249889 -0.028139794 0.5405969 0.22085615
000020 61 43 1d 3e 23 fb 8f be c7 13 41 3e 4b d1 9a 3d
       0.15357734 -0.2812129 0.188552 0.07559451
000030 d6 26 9b be e1 7d c9 3d 10 b5 54 be a5 b2 cf be
       -0.30303067 0.098384626 -0.20772195 -0.40565982
000040 bd dd 81 3e 4f 74 1e 3e 53 7b 06 3e 50 9f 39 bd
       0.25364485 0.15474056 0.13132982 -0.045317948
000050 21 9e 54 3e 60 e6 94 3e ea 5f a5 3e 7b d1 b9 3d
       0.20763446 0.29082012 0.3229974 0.09073158
000060 a5 32 34 3d 18 be df 3e 37 92 b2 3e 56 86 ca 3e
       0.04399361 0.43699718 0.34877178 0.39555615
000070 c9 c2 46 3c fe ea 28 3e c7 00 6d be 1f 18 01 be
       0.012131401 0.16495892 -0.23144828 -0.12606858
000080 ba 51 35 be c6 cd 06 be 07 4a c5 be d2 6f 88 bd
       -0.17706957 -0.13164434 -0.3853304 -0.06661953
000090 99 25 34 bf 2e b6 4e bf 8a ad 4f bf a7 43 2b bf
       -0.7036987 -0.80746734 -0.81124175 -0.66900104
0000a0 de 7f 7d bf e0 88 13 bf 8b 30 17 be ae 09 e4 be
       -0.99023235 -0.5763073 -0.14764611 -0.44538635
0000b0 e5 ab aa bd 4d 8a 00 00 18 8a 00 80 0a 43 57 80
       -0.083335675 4.9613e-41 -4.9539e-41 -8.013737e-39
0000c0 cc 89 00 80 c8 88 00 80 81 e2 07 00 9a 89 00 00
       -4.9432e-41 -4.9068e-41 7.24103e-40 4.9362e-41
0000d0 69 89 00 00 18 8a 00 00 76 ed e5 bc 48 3a 30 be
       4.9293e-41 4.9539e-41 -0.028067332 -0.17209733
0000e0 0d 34 c2 be da a5 68 be 1e 37 df be 3f e4 9e be
       -0.37930337 -0.22719517 -0.4359674 -0.31033513
0000f0 ee d0 1a bf 16 6c 12 bf f3 bf 17 bf 8a 52 45 bd
       -0.6047505 -0.57196176 -0.59277266 -0.04817442
000100 a4 16 38 3e 45 03 bd 3d 0b a2 43 3d e5 88 ee bd
       0.17977387 0.09229139 0.047761958 -0.11647204
000110 b5 ed 94 3d 58 ec 9e 3b 9f 8d 27 3e ef d7 26 3f
       0.072719015 0.0048499517 0.16362618 0.6517324
000120 b7 a4 b6 3e 36 6d e7 3e 7a a5 a5 3d ee 1f 37 be
       0.35672542 0.4520051 0.08088203 -0.17883274
000130 6d 3f 13 3d 97 ab 8c be 3f 4b e1 bc 0c 70 9a 3e
       0.03594916 -0.27474663 -0.0275017 0.3016361
000140 17 79 72 bd 60 56 13 be 5e f4 1d be a4 25 11 be
       -0.05919751 -0.14388418 -0.1542525 -0.14174515
000150 79 80 73 3c b9 51 44 be f4 48 1c bb 7c 79 45 be
       0.014862173 -0.191718 -0.0023847194 -0.19284624
000160 cc dc 21 be 33 df 6c 3d 5a 0e 28 3e df f0 92 bd
       -0.15806884 0.057830047 0.16411725 -0.07174849
000170 76 16 3b 3e ec cf f2 3d 95 84 b9 3d 22 32 22 3e
       0.18270287 0.11856064 0.09058491 0.15839437
000180 1c 6f b4 be 11 1c 7f be 70 f3 a9 be 38 47 54 3f
       -0.3524102 -0.2491305 -0.3319354 0.8292117
000190 03 f9 ef 3e 11 13 8a 3e e5 14 da 3e b2 95 ae 3e
       0.46869668 0.26967672 0.42594066 0.34098583
0001a0 36 53 0c 3f 5b 5f bb 3d 9b 3e 3e 3e c3 d8 66 3e
       0.5481447 0.09149047 0.1857857 0.22543626
0001b0 43 d5 e1 bd b8 e8 4e 3d 15 f1 a0 3e 6a de 74 be
       -0.110270046 0.050514907 0.3143393 -0.23912969
0001c0 0e 2f 12 3e 8a ee 27 be 58 57 1d be f7 8a ee bd
       0.14275762 -0.16399589 -0.1536535 -0.11647599
0001d0 d1 e2 fc bd 61 5d 78 be 49 13 9b be 52 3b 86 be
       -0.12347949 -0.24254371 -0.3028815 -0.26217133
0001e0 de e1 6e 3d 2a e0 19 bf 1c 34 ad be 30 5c 47 be
       0.058320872 -0.6010767 -0.3382882 -0.1946876
0001f0 f5 cb 0a bf bd 94 19 bf 1b 25 e9 3e ef 5e 11 3f
       -0.54217464 -0.5999258 0.45536122 0.5678548
000200 65 41 6b 3e 22 62 4a 3e d7 79 e6 3e 02 d7 71 3d
       0.22974165 0.19763997 0.4501483 0.059042938
000210 46 85 6d bd 9d 7b a5 3d 66 bc 4c be 10 86 03 bf
       -0.057988428 0.08080218 -0.19993743 -0.5137644
000220 64 76 8c be bf 7b 22 be dd ee bb be f6 02 d3 be
       -0.27434075 -0.15867518 -0.36705676 -0.41213197
000230 07 38 b2 be 41 c8 aa 3d 55 86 fb bc 50 c4 97 bd
       -0.3480837 0.08338977 -0.030703703 -0.074104905
000240 6b ab a6 17 21 b0 52 98 a7 b5 c7 98 27 df e5 98
       1.0770771e-24 -2.7230786e-24 -5.1623716e-24 -5.942044e-24
000250 88 d0 4c 8f 9a 7f c7 18 03 22 72 98 e2 04 2c 98
       -1.0098138e-29 5.156914e-24 -3.1294938e-24 -2.2232944e-24
000260 46 f8 e6 18 1d 36 13 bf ed 52 12 bf a2 18 ac be
       5.97043e-24 -0.57504445 -0.57157785 -0.33612543
000270 b9 10 74 be 6e 6b dd bd 9c fc ba 3c d4 5f 66 3e
       -0.23834504 -0.10811506 0.022825532 0.22497493
000280 dd c1 92 3e af d4 a1 3e cc b9 d2 bd 49 41 84 be
       0.2866353 0.31607577 -0.10289344 -0.2583106
000290 70 95 95 be ec 3f 6a be e5 94 d4 bc 8d f0 18 be
       -0.29215574 -0.22875947 -0.025949905 -0.14935513
0002a0 17 be 2c bd e8 bb 8b 3e 03 ad 2d be f5 b2 2c be
       -0.04217347 0.272918 -0.1696053 -0.16865142
0002b0 b0 78 70 be d1 a5 96 3c 2c 50 dc be 46 b1 21 be
       -0.23483539 0.018389614 -0.43029916 -0.1579028
0002c0 11 49 e5 3d 56 fa 4f 3e a2 c9 0b 3e 2c ac d4 3d
       0.11195577 0.2031034 0.13651136 0.10384402
0002d0 b4 41 d1 be ed a6 d6 bd 4f 79 88 be 57 4c 99 be
       -0.4087044 -0.10481057 -0.2665505 -0.29941055
0002e0 32 b8 5a be b9 77 9a be 21 e9 23 bd 03 3f b3 bb
       -0.21359327 -0.30169466 -0.04001725 -0.005470158
0002f0 77 89 8a be cb 1a cc 3e 6e 1d ef 3e a1 f5 94 3e
       -0.27058002 0.3986419 0.4670214 0.2909365
000300 4d 60 b8 3e 22 f4 05 3f 41 72 3b be 90 1f c9 3e
       0.36010972 0.5232564 -0.18305303 0.39281893
000310 44 85 3c 3e 65 10 09 bb d4 dc 87 bd 56 87 83 bd
       0.18410212 -0.0020914313 -0.066339165 -0.06422298
000320 b8 ad 03 be 4e 26 ca be 43 20 41 be 84 05 a3 bd
       -0.12859237 -0.3948235 -0.18859963 -0.079600364
000330 81 1d fb 3c c4 13 60 3e d6 ce 50 3e 8f 3a 0b be
       0.030653717 0.2188254 0.20391402 -0.13596557
000340 c3 59 66 3d d9 79 11 3e ea 80 0b bd 36 30 62 bc
       0.056237947 0.14206637 -0.03405849 -0.01380544
000350 86 68 6e 3e 14 26 22 be d8 41 72 3d 88 15 97 3e
       0.2328206 -0.15834838 0.059144825 0.29508615
000360 7b 68 b4 bd 58 17 28 bf 19 08 d5 be 76 87 1e bf
       -0.088089906 -0.6566062 -0.4160774 -0.61925447
000370 8a 1c 19 bf 7e fb 06 bf 8f a2 01 bf 85 c6 88 be
       -0.5980917 -0.52727497 -0.5063867 -0.26713958
000380 94 6c 3d bf 41 f8 ce be 5d 18 25 be 20 60 26 3e
       -0.739938 -0.40423778 -0.16122575 0.16247606
000390 02 64 cb be 8d eb 85 be dd 27 a2 bd 3c 04 cf bd
       -0.39724737 -0.26156273 -0.079177596 -0.101082295
0003a0 03 df c0 3d ad 8e a4 3e 8d 6f 32 ad e0 7d 85 ab
       0.09417536 0.32140103 -1.0142898e-11 -9.485156e-13
0003b0 72 4d 81 ac b9 bd 05 ad 9b 74 97 22 f6 6a 25 ac
       -3.6749987e-12 -7.602302e-12 4.1052093e-18 -2.3507286e-12
0003c0 52 09 7a ac 43 ba 46 2c 68 45 c0 2b 0c 8a 00 00
       -3.553231e-12 2.8240888e-12 1.3661685e-12 4.9522e-41
0003d0 ef 88 00 80 ae 89 00 80 ec 88 00 80 2a 89 00 80
       -4.9123e-41 -4.939e-41 -4.9118e-41 -4.9205e-41
0003e0 01 89 00 80 51 89 00 80 1d 8a 00 00 87 89 00 00
       -4.9148e-41 -4.926e-41 4.9546e-41 4.9336e-41
0003f0 40 ad 00 00 88 af 00 00 df 8a 00 80 a1 8e 00 00
       6.215e-41 6.2969e-41 -4.9818e-41 5.1166e-41

conv3.bias f4 [48]
000000 97 33 5a 38 18 e9 4e aa ed c5 a1 38 44 c6 b4 35
       5.2023297e-05 -1.8377346e-13 7.713945e-05 1.3468748e-06
000010 15 22 eb 38 68 00 01 39 4d ff 58 b8 f0 19 b7 b8
       0.000112120215 0.0001230255 -5.173618e-05 -8.730951e-05
000020 61 73 1a 26 bf ee 82 ad e6 2f 83 b7 c7 e2 88 b7
       5.358585e-16 -1.4885313e-11 -1.5638721e-05 -1.6318065e-05
000030 7b a6 56 38 c6 13 07 2c 93 28 06 39 d3 6d 7c b5
       5.1176623e-05 1.919563e-12 0.00012794351 -9.403713e-07
000040 4f 42 18 b9 e6 ef 3d b9 44 31 75 a7 93 43 9e 35
       -0.00014520551 -0.00018113814 -3.4027287e-15 1.1791584e-06
000050 49 bb 3b ab 99 41 a8 2f b2 c9 0d b9 c6 70 d9 38
       -6.6695656e-13 3.0605632e-10 -0.00013521945 0.00010368372
000060 42 69 cf 38 92 21 04 b9 b7 3c 4d 37 dd c2 4f 38
       9.890135e-05 -0.00012601007 1.22330885e-05 4.9534126e-05
000070 5a 43 20 b9 2b 6d 85 b8 53 1e eb b7 b8 02 1b 26
       -0.0001528388 -6.362268e-05 -2.8028304e-05 5.378011e-16
000080 38 b7 d2 a9 d6 4b b1 36 9a 49 fd 30 a0 ec ae b8
       -9.357657e-14 5.2838395e-06 1.8429092e-09 -8.3410414e-05
000090 11 c9 a1 b8 8a 3b be b6 87 88 35 39 80 9f d2 b8
       -7.71453e-05 -5.6693725e-06 0.00017312366 -0.000100432895
0000a0 eb 3d 82 b8 57 7e 11 ac a6 0e 20 28 5e bc ff 2c
       -6.210416e-05 -2.0675872e-12 8.8849606e-15 7.268449e-12
0000b0 b1 4b 30 b9 af bc 44 39 00 5e 28 39 0e e9 95 b7
       -0.00016812865 0.00018762307 0.00016056746 -1.7870709e-05

bn3.weight f4 [48]
000000 bf d7 56 3f ea 88 00 00 52 96 4b 3f 2d 52 b8 3f
       0.8392295 4.9116e-41 0.79526246 1.4400078
000010 57 19 5a 3f 74 d1 48 3f 36 ba 11 3f bd e1 9b 3f
       0.85194916 0.784446 0.5692476 1.2178265
000020 bf 88 00 00 4e 89 00 00 4c 33 17 3f fc 0b 76 3f
       4.9055e-41 4.9256e-41 0.5906265 0.96112037
000030 5e d2 c3 3f 93 6c 87 3c 5f 28 8e 3f 8b 0e 84 37
       1.5298574 0.016531264 1.110607 1.5742398e-05
000040 bf 46 4a 3f fa 28 a9 3f df 75 b5 b7 c1 5e 5b bb
       0.790142 1.321563 -2.163177e-05 -0.0033473226
000050 dc 89 00 00 06 68 fc a8 e6 04 ee 3f 9b ea ff 3f
       4.9455e-41 -2.8022733e-14 1.8595245 1.9993471
000060 f9 33 89 3f 64 57 5f 3f 76 dc 83 b3 af 15 1c 3f
       1.0718986 0.8724272 -6.1402645e-08 0.60970587
000070 46 ef 4b 3f 6c 67 9c 3f e1 70 72 3f 3d b5 d2 14
       0.7966198 1.2219062 0.9470349 2.1276067e-26
000080 5a af 8a b8 5d 7f 92 3f 54 c6 82 2e d7 41 26 3f
       -6.6130146e-05 1.1445118 5.946946e-11 0.64944214
000090 d7 2b 6a 3f be 59 26 bb 7f b7 76 3f 33 47 15 40
       0.91473144 -0.002538308 0.9637374 2.3324707
0000a0 3c f2 52 3f 21 a9 00 00 3b da 94 20 05 92 00 80
       0.8240087 6.0672e-41 2.5216588e-19 -5.2382e-41
0000b0 48 48 cd 3f 1e 16 41 3f 51 d4 8e 3f c2 5e 8b 3f
       1.6037683 0.75424373 1.1158544 1.0888293

bn3.bias f4 [48]
000000 f4 66 85 3c 90 a8 00 80 00 f6 3b bf d7 e7 15 bf
       0.016284443 -6.0469e-41 -0.7342224 -0.58556885
000010 c3 9c c8 be 67 e8 78 bf 86 63 ce bc 03 ae e7 be
       -0.391821 -0.9722962 -0.02519394 -0.45249948
000020 9e 89 00 80 17 89 00 80 d1 d1 d7 be bf c1 eb bf
       -4.9368e-41 -4.9179e-41 -0.42152265 -1.8418502
000030 69 53 1e bf 72 68 7e be ce fa 1f bf 88 64 82 b2
       -0.61846024 -0.2484453 -0.6249207 -1.5179708e-08
000040 04 1b f4 3a 7f f8 ea be ab e9 1d b5 8e 40 b5 ba
       0.0018623774 -0.45892712 -5.882709e-07 -0.0013828443
000050 23 89 00 80 f3 3c aa 98 e3 f0 5e bf ad 3f 03 bf
       -4.9195e-41 -4.4005513e-24 -0.87086314 -0.51269037
000060 e5 59 72 bf 65 d9 60 3e 46 68 92 ae ff 9b 92 3e
       -0.9466842 0.2195793 -6.657834e-11 0.2863464
000070 3b c1 3d bf 07 44 3f bf d5 a3 2b bf 17 e8 9b 87
       -0.7412297 -0.74713176 -0.6704686 -2.3458218e-34
000080 7e 98 40 b5 ca df 14 c0 bf f0 c6 9d f9 67 c3 be
       -7.174748e-07 -2.326159 -5.265909e-21 -0.38165262
000090 5b c5 dc be 3c 95 3b be c4 92 2e 3e cd a4 36 bf
       -0.4311932 -0.18318647 0.17048174 -0.71345216
0000a0 47 ed 00 bf a0 59 be af 1d c8 52 92 f5 89 00 80
       -0.50362056 -3.462448e-10 -6.6510975e-28 -4.949e-41
0000b0 1b eb fc be 8c 3e 39 bf 19 cc 07 bf c6 43 12 bf
       -0.4939812 -0.72361064 -0.53045803 -0.57134664

bn3.running_mean f4 [48]
000000 ba b3 42 c0 23 c2 4e a7 c2 6d eb bf 4f 9d 72 c0
       -3.0422196 -2.8693485e-15 -1.839287 -3.7908514
000010 bc a6 95 bf f7 81 80 3f b6 1e aa 3f a3 80 a0 c0
       -1.1691508 1.0039662 1.3290622 -5.0157027
000020 4c 4e f6 a3 79 ca 47 2b ad b2 43 3f 7f ea 3f 40
       -2.6704533e-17 7.097999e-13 0.7644451 2.9986875
000030 34 4a 35 c0 75 83 46 3a 5b 77 92 c0 51 de 3b 33
       -2.832654 0.0007572689 -4.5770698 4.3741526e-08
000040 89 62 d9 be 19 5f 89 c0 fa 98 44 25 55 48 8b b3
       -0.4245799 -4.2928586 1.705212e-16 -6.485849e-08
000050 21 0b 4f 29 fa b2 b1 ac f8 26 f3 bf 48 69 a8 c0
       4.5972886e-14 -5.050513e-12 -1.8996267 -5.2628517
000060 eb 28 c6 bf 63 a3 07 c0 ea 3d 18 b5 af ac da 3f
       -1.5481237 -2.1193473 -5.671451e-07 1.7083949
000070 34 6e 2f 40 d4 02 5a c0 de 1d 0e c0 20 27 37 a4
       2.7411013 -3.4064226 -2.220573 -3.971494e-17
000080 70 7c a9 27 75 30 28 40 1f 21 27 af 09 c4 b3 3f
       4.704184e-15 2.6279576 -1.5200328e-10 1.40442
000090 11 2c 65 c0 3e de bd bb 64 f4 95 3f 1e 6d 86 c0
       -3.5808146 -0.0057943156 1.1715207 -4.20082
0000a0 7d cf 6c 3f de 46 4b 2b 1a fb ff a5 89 5c dd aa
       0.925041 7.2218436e-13 -4.4405602e-16 -3.9321695e-13
0000b0 3e 7e ae c0 fb 03 01 bf 07 a0 4f c0 f6 f6 6a c0
       -5.4529104 -0.503967 -3.2441423 -3.6713233

bn3.running_var f4 [48]
000000 4c 6e c7 41 77 20 f5 01 51 9d 89 41 7a b9 29 42
       24.928856 9.004537e-38 17.201815 42.43113
000010 c9 6b 6f 41 52 a7 3f 41 a1 61 7b 41 55 bc 0e 42
       14.963815 11.97835 15.711335 35.683918
000020 04 00 00 00 2f ce 01 03 57 4c 7b 41 98 a9 90 41
       6e-45 3.814638e-37 15.706138 18.08281
000030 4f eb 19 42 6a 06 a0 35 e5 7f bb 41 ad a5 0a 12
       38.479794 1.1922796e-06 23.437449 4.3749333e-28
000040 4e ff b7 41 99 50 31 42 57 f8 09 00 cd 23 ad 14
       22.99966 44.32871 9.15607e-40 1.7482657e-26
000050 4b ce c3 01 12 38 57 0b 60 63 22 42 69 d1 2f 42
       7.1927703e-38 4.1449676e-32 40.597046 43.954502
000060 37 c1 71 41 a6 2f ee 41 00 41 d3 15 db 90 00 42
       15.109672 29.773266 8.5324773e-26 32.14146
000070 16 16 72 41 fb 04 c7 41 29 3e e1 41 3f 3d c9 03
       15.130392 24.877432 28.155352 1.182778e-36
000080 95 49 7a 05 a0 a1 b6 41 24 43 3c 0d 0f 00 9c 41
       1.17684584e-35 22.828918 5.801279e-31 19.500029
000090 f3 8e c0 41 7b af 1e 38 15 03 20 42 5a 27 32 42
       24.0698 3.7833564e-05 40.00301 44.53843
0000a0 dd 18 85 41 d5 c0 1d 07 86 24 6e 00 1c 6d fd 03
       16.63714 1.1868035e-34 1.0115007e-38 1.4895054e-36
0000b0 4b b1 45 42 d4 de 5e 41 64 ca ed 41 2f 6e b4 41
       49.423138 13.929401 29.723824 22.5538

conv4.weight f4 [64, 48, 3, 3]
000000 96 86 05 00 d3 88 00 80 a4 99 00 80 5b 93 00 00
       5.07458e-40 -4.9083e-41 -5.5116e-41 5.2861e-41
000010 a4 75 03 00 d6 29 0b 00 7f 91 05 00 2a ce 05 80
       3.17708e-40 1.025198e-39 5.11372e-40 -5.33135e-40
000020 ec 1c 03 80 31 89 00 80 18 89 00 80 85 89 00 00
       -2.85882e-40 -4.9215e-41 -4.918e-41 4.9333e-41
000030 fb 89 00 00 0d 8a 00 80 e3 89 00 80 fa 89 00 00
       4.9498e-41 -4.9523e-41 -4.9464e-41 4.9497e-41
000040 e2 89 00 00 0b 89 00 00 b3 0a 06 80 8f 55 03 00
       4.9463e-41 4.9162e-41 -5.54851e-40 3.06199e-40
000050 bd fa 02 00 a0 9b 00 00 b4 53 93 82 04 aa 00 80
       2.73619e-40 5.5828e-41 -2.1647752e-37 -6.099e-41
000060 0b ac 0b 00 a7 44 92 94 d6 e8 04 80 e7 6c 00 80
       1.071908e-39 -1.4769311e-26 -4.50868e-40 -3.9067e-41
000070 e4 92 00 80 98 54 02 80 af 13 05 00 de 88 00 00
       -5.2694e-41 -2.14018e-40 4.66239e-40 4.9099e-41
000080 f1 ab 00 00 24 2a 03 80 bb 88 00 80 be 88 00 00
       6.1681e-41 -2.90624e-40 -4.905e-41 4.9054e-41
000090 76 f3 02 00 36 63 0b 00 c0 71 05 80 d7 61 02 80
       2.71008e-40 1.04578e-39 -4.99983e-40 -2.1877e-40
0000a0 25 32 06 80 34 ad 00 80 ab c9 29 a1 5d e0 dd 34
       -5.69001e-40 -6.2134e-41 -5.752633e-19 4.1327704e-07
0000b0 62 a0 02 80 50 8a 00 80 e6 88 00 80 c7 32 02 80
       -2.41206e-40 -4.9617e-41 -4.911e-41 -2.01886e-40
0000c0 d1 1d 00 80 a0 4c 02 80 d8 ae 04 00 65 12 00 00
       -1.0696e-41 -2.11159e-40 4.30064e-40 6.599e-42
0000d0 e0 cb 02 80 f5 25 05 80 87 75 02 80 15 bf 04 00
       -2.56808e-40 -4.72794e-40 -2.25832e-40 4.3589e-40
0000e0 19 f1 01 80 ad 90 00 80 4a a2 00 80 c0 37 03 80
       -1.78325e-40 -5.19e-41 -5.8218e-41 -2.95506e-40
0000f0 ba 11 06 80 90 96 00 80 be a0 02 00 66 73 05 00
       -5.57372e-40 -5.4012e-41 2.41334e-40 5.00575e-40
000100 d4 eb 05 80 ae 2c 03 00 4e 89 0a 37 68 7b 5d b2
       -5.43777e-40 2.91535e-40 8.25741e-06 -1.2891952e-08
000110 cc 48 a5 ac c4 05 17 b0 c1 1b 03 80 83 37 06 80
       -4.697664e-12 -5.4941673e-10 -2.85463e-40 -5.70927e-40
000120 c1 89 00 80 b7 89 00 00 e7 88 00 00 58 89 00 00
       -4.9417e-41 4.9403e-41 4.9111e-41 4.927e-41
000130 b9 88 00 80 29 8a 00 00 30 89 00 00 e6 88 00 80
       -4.9047e-41 4.9563e-41 4.9214e-41 -4.911e-41
000140 95 89 00 00 5d 89 00 80 91 89 00 00 0e 89 00 80
       4.9355e-41 -4.9277e-41 4.935e-41 -4.9166e-41
000150 84 89 00 80 3c 8a 00 80 ca 88 00 00 ca 88 00 00
       -4.9331e-41 -4.9589e-41 4.907e-41 4.907e-41
000160 d9 89 00 00 57 89 00 00 3b 07 04 0a 4c d9 0a 80
       4.945e-41 4.9268e-41 6.356929e-33 -9.96306e-40
000170 5a 17 03 80 1f 74 0b ae c4 65 06 80 fe 9d 00 80
       -2.83883e-40 -3.1708077e-11 -5.8752e-40 -5.6677e-41
000180 5f 4e 03 80 1b 80 05 80 57 be 0b 80 d9 88 00 80
       -3.03621e-40 -5.05133e-40 -1.078472e-39 -4.9092e-41
000190 ce 00 04 80 94 51 02 80 9e 51 00 00 7b 0a 00 80
       -3.6763e-40 -2.12936e-40 2.9279e-41 -3.76e-42
0001a0 c9 88 00 80 c9 0e 03 00 33 e0 01 80 e7 88 00 80
       -4.9069e-41 2.8081e-40 -1.72263e-40 -4.9111e-41
0001b0 84 4d 02 80 7d 84 00 00 ba 6f 04 00 c9 88 00 80
       -2.11478e-40 4.7528e-41 4.07422e-40 -4.9069e-41
0001c0 dc 88 00 80 a3 2d 0a 80 d5 97 00 80 23 ad 00 00
       -4.9096e-41 -9.34726e-40 -5.4467e-41 6.211e-41
0001d0 ff 01 03 80 2d 8a 00 80 13 89 00 80 0b 89 00 80
       -2.76223e-40 -4.9568e-41 -4.9173e-41 -4.9162e-41
0001e0 cb 88 00 80 cd 89 00 00 f2 89 00 00 08 8a 00 80
       -4.9072e-41 4.9434e-41 4.9485e-41 -4.9516e-41
0001f0 87 89 00 80 01 89 00 80 9e 39 05 00 1b 15 05 00
       -4.9336e-41 -4.9148e-41 4.79847e-40 4.66749e-40
000200 3c 28 05 00 b7 92 02 80 fc 9a 00 00 85 38 00 80
       4.73611e-40 -2.36302e-40 5.5598e-41 -2.0275e-41
000210 4f 15 05 00 58 3d 03 80 f4 82 02 00 0a 89 00 80
       4.66822e-40 -2.97512e-40 2.30648e-40 -4.916e-41
000220 8c 89 00 80 ff 97 00 80 41 89 00 80 cd 88 00 80
       -4.9343e-41 -5.4526e-41 -4.9237e-41 -4.9075e-41
000230 1a 89 00 80 fc 88 00 80 7f 89 00 80 56 89 00 80
       -4.9183e-41 -4.9141e-41 -4.9324e-41 -4.9267e-41
000240 66 a6 02 00 a8 76 04 00 b9 88 00 80 ed 88 00 00
       2.43364e-40 4.09908e-40 -4.9047e-41 4.912e-41
000250 cd 88 00 80 f0 88 00 00 a1 53 00 80 ce 88 00 80
       -4.9075e-41 4.9124e-41 -3e-41 -4.9076e-41
000260 b1 45 0b 00 cc 99 02 00 cd 88 00 00 bb 88 00 80
       1.035191e-39 2.38843e-40 4.9075e-41 -4.905e-41
000270 47 a8 02 00 c3 88 00 00 b0 3f 85 22 2f f7 02 80
       2.44038e-40 4.9061e-41 3.6117154e-18 -2.72344e-40
000280 0e 4b 05 80 cd 88 00 80 28 89 00 00 d0 88 00 80
       -4.86102e-40 -4.9075e-41 4.9202e-41 -4.9079e-41
000290 c5 88 00 00 7a 89 00 00 ca 89 00 80 08 89 00 80
       4.9064e-41 4.9317e-41 -4.943e-41 -4.9158e-41
0002a0 c2 88 00 00 00 89 00 00 58 89 00 00 a9 fd 50 34
       4.906e-41 4.9146e-41 4.927e-41 1.946379e-07
0002b0 d6 62 44 2a 1e 48 bc b0 42 35 6e a9 b8 89 00 00
       1.7442588e-13 -1.3699297e-09 -5.289281e-14 4.9404e-41
0002c0 7d 0e a9 a9 ac 7e a1 32 fe 13 cb 2e 5c 1d 30 29
       -7.507621e-14 1.880047e-08 9.2349225e-11 3.9105316e-14
0002d0 98 89 00 00 07 89 00 00 03 89 00 80 ca 88 00 00
       4.936e-41 4.9156e-41 -4.915e-41 4.907e-41
0002e0 9a 91 00 00 2e 89 00 80 e5 89 00 00 63 89 00 80
       5.2232e-41 -4.9211e-41 4.9467e-41 -4.9285e-41
0002f0 34 89 00 80 10 a0 00 80 13 55 8a ac c5 cb 29 2e
       -4.9219e-41 -5.742e-41 -3.931641e-12 3.8607135e-11
000300 11 40 b7 31 13 94 00 00 4b 37 37 27 e2 aa 0a 27
       5.3332845e-09 5.3119e-41 2.5426326e-15 1.9243983e-15
000310 e7 6b a6 ad 05 e1 4b 25 fe b1 05 80 f5 8b 05 80
       -1.8919933e-11 1.7683683e-16 -5.23029e-40 -5.09385e-40
000320 6a d3 0b 80 a7 93 18 80 65 af 00 80 be 7e 05 80
       -1.086032e-39 -2.25702e-39 -6.292e-41 -5.04644e-40
000330 d7 88 00 00 c3 2d 02 80 16 5a 02 00 ac a0 00 00
       4.9089e-41 -2.00087e-40 2.15988e-40 5.7638e-41
000340 6c cf 03 80 e0 88 00 80 e7 88 00 00 17 5b 00 00
       -3.49915e-40 -4.9101e-41 4.9111e-41 3.2677e-41
000350 2a 9f 00 00 be 88 00 00 81 56 02 00 a0 dc 02 80
       5.7097e-41 4.9054e-41 2.14703e-40 -2.62816e-40
000360 17 bd 05 00 d4 54 05 80 dc 1b 02 00 e7 a1 00 80
       5.2701e-40 -4.89608e-40 1.93665e-40 -5.808e-41
000370 85 a6 00 80 2d 62 00 80 38 73 02 80 b7 f6 05 80
       -5.9736e-41 -3.5219e-41 -2.25004e-40 -5.47682e-40
000380 f4 a8 02 00 92 c3 05 00 40 f6 ef 33 9e d1 02 80
       2.4428e-40 5.29335e-40 1.11740974e-07 -2.58867e-40
000390 81 8e 03 80 59 41 02 80 e1 88 00 00 a1 21 09 80
       -3.26627e-40 -2.07113e-40 4.9103e-41 -8.38583e-40
0003a0 b5 19 05 00 1e 38 02 80 cf 88 00 00 16 43 64 b3
       4.684e-40 -2.03802e-40 4.9078e-41 -5.31464e-08
0003b0 6d 38 06 27 b0 87 26 32 fd 0a 91 ad f5 9a 00 00
       1.8626824e-15 9.6933235e-09 -1.6489471e-11 5.5588e-41
0003c0 ba 67 7f b6 c6 8d 00 00 6d 9e f3 b0 d6 88 00 00
       -3.8058338e-06 5.0859e-41 -1.7725604e-09 4.9087e-41
0003d0 06 a0 00 80 5f a3 00 00 4d 7e 02 00 0c aa 00 00
       -5.7406e-41 5.8607e-41 2.28979e-40 6.1001e-41
0003e0 55 98 04 00 dd 88 00 80 1f cb 04 80 ce 88 00 00
       4.21988e-40 -4.9097e-41 -4.40208e-40 4.9076e-41
0003f0 68 62 02 80 c0 a4 00 80 a6 f2 02 00 64 33 00 00
       -2.18973e-40 -5.9101e-41 2.70717e-40 1.8435e-41

conv4.bias f4 [64]
000000 92 a9 93 b2 ab a6 a9 38 27 f8 47 39 80 e0 e3 aa
       -1.7190164e-08 8.089592e-05 0.00019070563 -4.0479078e-13
000010 4a 38 e2 a9 40 5d 3b b9 0d 7f 12 b8 c0 58 0e 39
       -1.0046181e-13 -0.00017868448 -3.4927438e-05 0.00013575237
000020 67 7b d5 b1 15 be b4 b7 e2 a7 d6 37 b0 62 9a af
       -6.213145e-09 -2.1546186e-05 2.5588964e-05 -2.8082559e-10
000030 ba c5 84 ad 09 7d 65 38 8d 9d df b8 fb 37 1e a8
       -1.509447e-11 5.4714303e-05 -0.00010662815 -8.782901e-15
000040 90 57 1e b7 03 2b b3 38 4e 41 10 27 a1 52 c9 b8
       -9.437921e-06 8.543397e-05 2.0019416e-15 -9.599818e-05
000050 ac 7b 37 39 bd 88 00 00 a4 a2 c1 2f 7b ab 77 37
       0.00017498311 4.9052e-41 3.5222059e-10 1.4762273e-05
000060 84 c8 ea a5 4a 64 be 33 64 42 94 a9 25 de 47 24
       -4.0728404e-16 8.865807e-08 -6.584037e-14 4.333941e-17
000070 b7 ae 02 b0 2d 50 40 ab ed 3a bb 38 29 dc 2e 2e
       -4.754201e-10 -6.832337e-13 8.927831e-05 3.975856e-11
000080 3c 09 1a 2c db de 07 b9 de da 9b 38 21 5e d9 b6
       2.1889842e-12 -0.00012957623 7.431743e-05 -6.478062e-06
000090 06 03 e2 aa 9e 16 86 25 a7 47 4a 39 01 c6 39 b9
       -4.0147763e-13 2.326062e-16 0.00019290914 -0.00017716737
0000a0 56 aa 1c ba 98 3c 41 39 78 04 fa 2d 06 98 78 b9
       -0.000597631 0.00018428487 2.8423694e-11 -0.00023707756
0000b0 da 15 c7 04 cd 40 a7 39 0f 5b 22 36 83 1c 1e a5
       4.6804743e-36 0.00031901003 2.4192884e-06 -1.3713976e-16
0000c0 f6 ef ca 34 19 c0 83 b0 69 5f 11 38 c5 aa ba ae
       3.7800027e-07 -9.586102e-10 3.465955e-05 -8.4886355e-11
0000d0 93 e1 eb b8 87 f1 d4 39 20 f3 02 27 e0 58 ec a5
       -0.0001124769 0.00040615743 1.8172922e-15 -4.0999698e-16
0000e0 b9 73 59 a8 70 8a 0c 33 dd 79 7a b7 ee e0 f7 b8
       -1.2071013e-14 3.27222e-08 -1.4929535e-05 -0.00011819774
0000f0 e5 94 00 80 3b 12 05 b8 a9 fe 1a b5 da a4 90 ae
       -5.3413e-41 -3.172665e-05 -5.774005e-07 -6.5776454e-11

bn4.weight f4 [64]
000000 2e cc e6 86 1b 89 de 3e a7 e5 04 3f 8e 06 18 99
       -8.68164e-35 0.43463978 0.5191292 -7.8595395e-24
000010 00 8b 00 00 c7 ae fb 3e d2 a8 38 bc 2e 4f d5 3e
       4.9864e-41 0.49156782 -0.011270719 0.41661972
000020 3d 9a 22 a7 8b 19 00 3f 28 41 fd 3e 71 85 62 bc
       -2.256563e-15 0.50038975 0.49463773 -0.01382576
000030 a0 dd d6 14 2f c3 03 3f 6a bf 12 3f f9 0b 6a 34
       2.1695894e-26 0.514697 0.57323325 2.1797304e-07
000040 e3 4c fc 3e b1 ad d0 3e 91 e0 9c bb 4d 6a d1 3e
       0.4927741 0.40757516 -0.0047875126 0.40901414
000050 0b 7d 1f 3f ce 89 00 80 85 26 d7 34 22 53 55 3b
       0.62300175 -4.9435e-41 4.0074897e-07 0.0032550772
000060 79 89 00 00 49 bf 93 bc 8e 46 48 bb 18 90 0d 27
       4.9316e-41 -0.018035548 -0.0030559632 1.9645794e-15
000070 a7 14 ab 3c 8c 0d f5 32 15 6b 43 36 16 54 08 3c
       0.020883871 2.8527914e-08 2.9119594e-06 0.008320829
000080 ea 4d 1c bc 91 c9 10 3f 50 61 c0 3e 83 73 f7 3e
       -0.009540061 0.56557566 0.37574244 0.48330316
000090 b4 89 00 00 c5 a1 00 80 02 bb e9 3e 13 a5 e0 3e
       4.9399e-41 -5.8032e-41 0.45650488 0.43875942
0000a0 ca e4 b7 3e 55 15 f6 3e 50 07 4f 3a fa a2 d8 3e
       0.3591674 0.4806315 0.0007897513 0.4231184
0000b0 b6 21 5a 3c 36 fc ac 31 b8 94 00 80 a3 3c 41 3c
       0.013313701 5.034532e-09 -5.335e-41 0.011794242
0000c0 77 f7 77 3c 38 a6 cc 3b 40 6e d1 3e 23 6c 09 bd
       0.015134684 0.0062454008 0.40904427 -0.033550393
0000d0 48 f2 dd 3e 88 97 ef 3e 1f 1d 0b 3c 5f 89 00 00
       0.43348908 0.46795297 0.00849083 4.928e-41
0000e0 b2 69 0b 34 11 ce 87 a7 56 2d d8 3e c3 5c a6 3e
       1.2983836e-07 -3.7693445e-15 0.4222209 0.32492647
0000f0 18 89 00 00 00 31 88 3e 6b 9f 19 39 30 08 f0 bc
       4.918e-41 0.26599884 0.00014650605 -0.02930078

bn4.bias f4 [64]
000000 db 66 86 8c 40 6c 4a bf b7 2e 96 bf 66 bc e9 97
       -2.0707873e-31 -0.79071426 -1.1733006 -1.5104831e-24
000010 3c d7 28 bc 53 b9 5b bf f9 f4 a1 be 07 38 2a bf
       -0.010305222 -0.8582966 -0.31632212 -0.6649174
000020 87 cb b8 a8 a9 46 68 bf 02 fa 4e bf b8 11 83 bd
       -2.051637e-14 -0.9073282 -0.8085023 -0.06399864
000030 80 a8 8c 9b 4d a0 74 bf 75 09 87 bf 87 4a 13 b5
       -2.3269948e-22 -0.955571 -1.0549761 -5.487022e-07
000040 11 90 75 bf 7b d3 4f bf 17 4d 3c be 0f 5a 1a bf
       -0.9592295 -0.8118207 -0.18388782 -0.6029367
000050 cd 13 97 bf d5 88 00 00 52 39 a8 b7 f5 76 1b be
       -1.1802918 4.9086e-41 -2.0053852e-05 -0.15182097
000060 0c 89 00 80 af 21 7f be 29 fa db bd 73 50 e4 a1
       -4.9163e-41 -0.24915193 -0.10741074 -1.5471176e-18
000070 99 49 39 be de 90 1a b2 63 80 4e b9 0d 1a 22 be
       -0.18094482 -8.996919e-09 -0.00019693519 -0.1583025
000080 df 2b 62 be 4f 2a 92 bf d8 6d 26 bf 9a bd 54 bf
       -0.22087048 -1.1419162 -0.6501136 -0.8310181
000090 cc 7c ac b5 81 13 08 bb 6c 0d 78 bf 5f 70 52 bf
       -1.2851319e-06 -0.0020763578 -0.9689548 -0.82202715
0000a0 af d8 1e bf d8 46 3c bf fb cb a7 bd 6e ba 60 bf
       -0.6204938 -0.735456 -0.08193203 -0.8778447
0000b0 37 92 1b be f8 ec ef b6 6a 1d c1 a9 28 1d 37 be
       -0.15192495 -7.150342e-06 -8.576024e-14 -0.17882216
0000c0 48 b6 1e be 30 3b 11 be 3c 4e 34 bf 6c 33 34 be
       -0.15499222 -0.14182734 -0.70431876 -0.17597741
0000d0 07 d2 3f bf f9 24 47 bf f3 28 cb bd 4c 89 00 00
       -0.7492985 -0.7779079 -0.0991992 4.9253e-41
0000e0 e9 09 68 b6 50 84 37 a8 ad f3 23 bf 06 12 1d bf
       -3.4576462e-06 -1.0187231e-14 -0.64043695 -0.61355627
0000f0 cb 88 00 80 d6 5c 84 be ed c4 01 ba c4 ca 46 be
       -4.9072e-41 -0.25852078 -0.00049503037 -0.19413286

bn4.running_mean f4 [64]
000000 9f 80 2e b5 95 7f cf c0 12 81 df c0 2e 4c bc 28
       -6.500722e-07 -6.484324 -6.9845057 2.090523e-14
000010 63 e9 bd 27 b4 d7 d9 c0 69 a8 88 3c a2 72 d1 c0
       5.2711076e-15 -6.807581 0.016681867 -6.5452433
000020 9c 71 ad 2f d0 57 02 c1 88 4a 04 c1 d2 ab 6a 2d
       3.154924e-10 -8.146439 -8.268196 1.3339512e-11
000030 39 92 60 2b e4 f6 00 c1 67 52 ec c0 04 7d fc 25
       7.978371e-13 -8.060276 -7.385059 4.3799745e-16
000040 ec 85 62 c0 65 50 7f c0 54 ff cb a4 d9 e8 34 c1
       -3.539424 -3.989282 -8.846976e-17 -11.306848
000050 69 1f 2d c1 c8 e6 00 00 f7 63 9d ad cb 26 65 b9
       -10.8201685 8.2789e-41 -1.7893227e-11 -0.00021853593
000060 50 c4 c5 23 3b 2c 47 34 f0 41 9f 27 e2 43 23 a2
       2.1441924e-17 1.854941e-07 4.4202855e-15 -2.2126556e-18
000070 a4 29 69 3e e4 db 15 29 f0 a0 89 b6 a5 51 ba ab
       0.22769791 3.327537e-14 -4.1016538e-06 -1.3238756e-12
000080 c6 41 10 3b 68 a9 15 c1 3d ac b7 c0 b4 b7 eb c0
       0.002201186 -9.353859 -5.739775 -7.3661747
000090 80 d6 3f 29 5c 74 06 37 90 80 b5 c0 73 6b 3d c1
       4.259657e-14 8.014114e-06 -5.6719437 -11.838733
0000a0 54 86 da c0 38 c5 33 c1 e6 0b fd 33 09 95 06 c1
       -6.8288975 -11.235649 1.1783395e-07 -8.411386
0000b0 1d c2 be 3d b3 7a 8a b7 d7 1d ba b3 69 69 8e 30
       0.09314368 -1.6508018e-05 -8.666728e-08 1.0361819e-09
0000c0 48 10 6d bf 81 83 43 2e 84 fc 80 c0 d6 57 38 b6
       -0.9260297 4.4454666e-11 -4.0308247 -2.7469264e-06
0000d0 b0 04 f1 c0 3c f5 f0 c0 29 ad 88 3b 80 fe c3 23
       -7.531822 -7.529936 0.004171033 2.1249727e-17
0000e0 1a 31 2f 26 a8 0b 8a b0 71 19 ee c0 cc 27 94 c0
       6.0781867e-16 -1.0044134e-09 -7.4406056 -4.629858
0000f0 4b b0 02 80 26 13 54 c1 96 6f 91 32 e9 c0 80 2c
       -2.46913e-40 -13.254675 1.6930965e-08 3.659396e-12
